checkpoint_critic.pth (torch_old, 225981 bytes, 7 tensors)

fcs1.weight f4 [256, 24]
0	0x3eaace8b	0.33360705
1	0xbe021572	-0.12703493
2	0xbd04673a	-0.032325007
3	0xbdb2c2b9	-0.08728547
4	0xbdebb96d	-0.115099765
5	0xbd1136d4	-0.03545268
6	0xbc64f90d	-0.013975394
7	0xbd032b24	-0.032023564
8	0x3ec1b460	0.37832928
9	0xbdd5a10b	-0.10431107
10	0x3dbab7c0	0.09117079
11	0xbd6b35e2	-0.057424434
12	0x3ddd3e41	0.108028896
13	0xbc30cfed	-0.010791761
14	0x3d439462	0.04774893
15	0x3d1d5593	0.038411688
16	0x3ea9b242	0.33143812
17	0xbd221461	-0.039570216
18	0x3d366c25	0.04453673
19	0xbda8e2fa	-0.08246417
20	0x3e2612cd	0.1621811
21	0x3e1ff94a	0.1562244
22	0x3d6b3a27	0.057428505
23	0xbd8dfb4a	-0.06932695
24	0x3a8d572c	0.0010783426
25	0xbc4c11a9	-0.012455382
26	0xbc25b767	-0.010114527
27	0x3e8bbfa9	0.27294663
28	0xbe397932	-0.18112639
29	0xbeae669c	-0.3406266
30	0xbd288b49	-0.041148458
31	0x3ea32d55	0.31870523
32	0xbd39aa40	-0.04532838
33	0x3e35bedc	0.17748588
34	0xbcf2062f	-0.029543964
35	0x3d055d8a	0.03255991
36	0xbd9c800f	-0.07641613
37	0xbe65caba	-0.22440615
38	0x3d1a39fe	0.037652962
39	0x3d542bc5	0.051799554
40	0xbd41d7bb	-0.047324877
41	0x3e557979	0.2084712
42	0x3c87f31c	0.016595416
43	0xbe9f2e77	-0.31090137
44	0x3e988906	0.2979204
45	0xbdf54df9	-0.11977763
46	0xbcfa6b1e	-0.030568656
47	0xbe958dbd	-0.292097
48	0x3de409d9	0.11134691
49	0xbe272deb	-0.1632611
50	0x3d1f2430	0.03885287
51	0xbd845415	-0.0646135
52	0xbe9e08f4	-0.30866206
53	0xbec717dd	-0.38885394
54	0x3c15e0aa	0.009147802
55	0xbce79462	-0.028268997
56	0x3dc20926	0.09474401
57	0xbdc381e5	-0.0954626
58	0xbb933150	-0.0044919625
59	0x3dbf64d2	0.09345402
60	0xbdd4d9ff	-0.10393142
61	0xbe2b6fd2	-0.16741875
62	0xbd2c7001	-0.042099003
63	0x3e3a57c6	0.18197545
64	0x3d6860b9	0.056732867
65	0xbe079923	-0.13242011
66	0x3dec27a3	0.115309976
67	0x3e3a6c4d	0.18205376
68	0x3e1136b8	0.1418103
69	0xbd9ca5da	-0.07648821
70	0x3d03df08	0.03219512
71	0x3e6ca66b	0.23110358
72	0x3da1e2f7	0.07904618
73	0x3da98967	0.082781605
74	0x3d2486dc	0.040167674
75	0x3dca431f	0.098760836
76	0xbd723c78	-0.0591397
77	0xbe831981	-0.25605395
78	0xbc0ed215	-0.00871708
79	0x3d9f4aaf	0.07777917
80	0x3d08d480	0.03340578
81	0x3db73ee2	0.08947541
82	0x3d0659bb	0.032800417
83	0xbe2138f7	-0.15744387
84	0x3ce82a76	0.02834056
85	0xbb30fdee	-0.0027006823
86	0x3c4af321	0.012387068
87	0xbe4a8e7d	-0.19780917
88	0x3b813f0a	0.0039442824
89	0xbd01e5be	-0.03171324
90	0x3c291873	0.010320771
91	0xbdd2281f	-0.10261559
92	0x3cff298c	0.03114774
93	0x3f419225	0.75613624
94	0x3c5f059f	0.01361218
95	0xbe0de46b	-0.13856666
96	0x3e50c3a1	0.20387127
97	0xbc4ecdba	-0.012622291
98	0xbd1fb07f	-0.03898668
99	0x3c253083	0.010082367
100	0x3d90043b	0.07032057
101	0xbe4d9356	-0.20075735
102	0x3d0c7db7	0.03429958
103	0xbd3351a0	-0.043779016
104	0x3d87a913	0.06624045
105	0xbca39541	-0.01996863
106	0xbdc4baf5	-0.09605972
107	0x3ddb2218	0.10699862
108	0x3dd1873a	0.102308705
109	0xbd87604f	-0.06610166
110	0xbd268abb	-0.040659647
111	0x3d42907a	0.047501065
112	0x3e0b3b71	0.13596894
113	0xbdca0cef	-0.09865748
114	0x3dbbb7a3	0.09165885
115	0x3cabfc8f	0.020994453
116	0x3ba907ef	0.0051584165
117	0x3dede598	0.11616057
118	0x3e1e6727	0.15469037
119	0x3d34dcab	0.044155758
120	0x3b97719b	0.004621697
121	0x3e39df86	0.18151674
122	0x3cb13858	0.021633312
123	0x3c9bd393	0.019021785
124	0x3e09328a	0.13398185
125	0xbf4021d4	-0.7505162
126	0xbce56d93	-0.02800635
127	0x3c54eac5	0.012995427
128	0xbdeb1b5f	-0.1147983
129	0x3ddfc379	0.10925955
130	0xbb1e0854	-0.002411385
131	0x3dc30b1b	0.095236026
132	0x3df64f9b	0.12026902
133	0xbf7d529d	-0.9895418
134	0xbcabf182	-0.020989183
135	0x3db7d935	0.08976976
136	0xbb8b4549	-0.004250203
137	0x3d66d112	0.05635173
138	0x3c8138aa	0.01577409
139	0xbd378d21	-0.044812325
140	0x3e05205c	0.13000625
141	0xbf25f2d7	-0.6482367
142	0x3c2a139c	0.010380652
143	0xbdb48449	-0.08814294
144	0x3c50c0dd	0.012741295
145	0x3dc906e5	0.09815768
146	0xbc9a3343	-0.018823272
147	0x3de1aae5	0.11018924
148	0x3eb16f1c	0.34655082
149	0xbeb19271	-0.34682038
150	0xbd10b219	-0.035326097
151	0x3ddd9011	0.10818494
152	0x3cbf0587	0.023318065
153	0x3d5115a8	0.051046044
154	0x3d40db8d	0.04708438
155	0x3d93b320	0.072119
156	0x3e37f364	0.1796394
157	0xbe91021f	-0.2832193
158	0x3d2de353	0.04245312
159	0x3da9182c	0.082565635
160	0x3da8643f	0.082222454
161	0x3ddffdac	0.10937056
162	0x3d195f56	0.037444435
163	0x3e22f4a4	0.15913635
164	0xbd029d97	-0.03188857
165	0x3e8022c5	0.25026527
166	0x3c8885b3	0.016665315
167	0x3e236c14	0.15959197
168	0x3dc8507e	0.09780978
169	0xbc9d88ad	-0.019230211
170	0xbcd3ff1e	-0.025878485
171	0xbc8e599d	-0.017376715
172	0x3e94e0a7	0.29077646
173	0xbda036f4	-0.078229815
174	0xbd81bc15	-0.06334702
175	0x3d8e3a66	0.06944732
176	0x3de8c2dc	0.113652915
177	0xbdb1a4b0	-0.0867399
178	0xbd8556cb	-0.06510695
179	0x3d803c2a	0.062614754
180	0x3e132f75	0.14373572
181	0xbe91cc3a	-0.28476125
182	0x3b565ea0	0.003271021
183	0x3d565c0d	0.05233388
184	0x3de57e7e	0.11205767
185	0xbe194137	-0.14966284
186	0x3d843bf9	0.064567514
187	0x3cc02d64	0.023459144
188	0xbe206802	-0.15664676
189	0xbe1dd805	-0.15414436
190	0x3c9e782b	0.01934441
191	0x3b5361fc	0.0032254448
192	0x3e8aac5e	0.2708463
193	0xbd3b1bdd	-0.04568087
194	0xbbabf880	-0.0052481294
195	0x3dd3f41d	0.10349295
196	0xbd519b41	-0.051173452
197	0xbec3b956	-0.38227338
198	0xbd0cfd0a	-0.034421004
199	0x3dead262	0.114659086
200	0x3e68bd7d	0.22728534
201	0xbccac3b9	-0.024751531
202	0xbc479eba	-0.012183839
203	0xbcf2cb40	-0.029637933
204	0x3daec90a	0.08534439
205	0xbe9ffb41	-0.3124638
206	0xbc9476f8	-0.018123135
207	0x3be663a4	0.007030921
208	0x3e1ddb99	0.15415801
209	0x3a3f845a	0.00073057937
210	0x3cb85f34	0.022506334
211	0xbd07a7b5	-0.033118922
212	0x3dd04573	0.101694964
213	0xbe2204c9	-0.15822138
214	0xbd0c6b2f	-0.034281906
215	0x3d192f8c	0.03739886
216	0xbcaa6517	-0.020800157
217	0x3eab86fe	0.33501428
218	0x3d676fde	0.05650317
219	0xbb0e3074	-0.002169636
220	0xbdd0a586	-0.10187821
221	0xbefa74c1	-0.489172
222	0xbc9da672	-0.019244406
223	0x3db63b36	0.08898012
224	0xbdb65216	-0.089023754
225	0x3e95705a	0.2918728
226	0x3bb74c7f	0.005593836
227	0x3d2585ca	0.040410794
228	0xbd745506	-0.059651397
229	0xbf49dc34	-0.7885163
230	0xbc8c8563	-0.017153447
231	0xbd076ede	-0.033064716
232	0xbbf794ba	-0.0075555714
233	0x3e8a11b7	0.2696664
234	0xbe05b136	-0.13055882
235	0xbdf9a351	-0.12189353
236	0xbd00b481	-0.031422142
237	0xbf9ba388	-1.2159281
238	0xbc5512fd	-0.013005015
239	0xbdf23903	-0.1182728
240	0x3dfb2297	0.12262457
241	0x3ea9081b	0.33013996
242	0x3c136c4d	0.008997989
243	0x3dc61be9	0.09673292
244	0x3e43cf3b	0.19122021
245	0x3e2d454f	0.1692097
246	0xbcf66af8	-0.030080304
247	0x3d5c35ad	0.053762127
248	0x3deb5d86	0.114924476
249	0x3ef31c77	0.47482654
250	0xbd25e854	-0.04050477
251	0x3d0d4500	0.03448963
252	0x3db9b4d0	0.0906769
253	0x3d556860	0.052101493
254	0x3d09fcc2	0.033688314
255	0x3e1b259e	0.15151069

fcs1.bias f4 [256]
0	0xbdbbf692	-0.09177889
1	0xbd3ae93d	-0.04563259
2	0xbd4e4efe	-0.0503683
3	0x3b4e76b1	0.003150385
4	0xbe30357d	-0.17207904
5	0xbe54e51d	-0.20790525
6	0xbeaa2801	-0.33233646
7	0xbdf4223d	-0.11920593
8	0xbec2be23	-0.38035688
9	0xbd7c5e0a	-0.06161312
10	0x3c889c8a	0.016676206
11	0xbdd209b1	-0.10255755
12	0x3da51e16	0.08062379
13	0xbef1be5a	-0.4721554
14	0xbe7c3457	-0.24629341
15	0xbb31b20e	-0.0027114186
16	0xbc73f17d	-0.014889118
17	0xbe711818	-0.23544347
18	0xbe81a387	-0.25320074
19	0xbf0e83f1	-0.55670077
20	0xbe22df64	-0.1590553
21	0xbee248e4	-0.44196236
22	0xbdd00607	-0.101573996
23	0xbe0fe7ae	-0.14053223
24	0x3d0c318c	0.03422694
25	0xbe7ee72d	-0.24892874
26	0xbe0f010c	-0.13965243
27	0xbd384292	-0.04498536
28	0xbe384277	-0.17994104
29	0xbe862b68	-0.2620499
30	0xbe6b6ffc	-0.22991937
31	0xbecada84	-0.3961984
32	0xbe220fa8	-0.15826285
33	0x3e4394d4	0.19099742
34	0xbed4fdd6	-0.4159991
35	0xbe4cbcc8	-0.1999389
36	0xbe134b8a	-0.14384285
37	0x3dbf2f89	0.093352385
38	0xbe50c3d6	-0.20387205
39	0xbe137213	-0.14398985
40	0xbe91d92c	-0.28486001
41	0xbe93a09c	-0.28833473
42	0xbd4e40a2	-0.050354607
43	0xbe80718b	-0.25086626
44	0xbdc44f8b	-0.09585484
45	0xbe72adc8	-0.23699105
46	0xbe1c5d95	-0.15270074
47	0xbebc6bb6	-0.36800927
48	0x3d40e97e	0.047097676
49	0xbd5b0903	-0.05347539
50	0xbe9ddfcd	-0.3083481
51	0x3d119c65	0.03554954
52	0xbee322a5	-0.4436237
53	0xbe30474d	-0.17214699
54	0x3e664573	0.2248743
55	0xbe9663df	-0.2937307
56	0xbe433d30	-0.1906631
57	0xbe83690f	-0.2566609
58	0xbea09033	-0.31360015
59	0xbc8ae5b6	-0.016955238
60	0x3dbd2027	0.09234648
61	0xbdad0543	-0.08448269
62	0xbe3a0b23	-0.18168311
63	0xbe2c51d7	-0.16828094
64	0xbd67327e	-0.056444637
65	0xbe040496	-0.12892374
66	0xbec8961b	-0.3917702
67	0xbe002816	-0.12515292
68	0xbee4c266	-0.44679564
69	0xbe545626	-0.20735988
70	0xbd313bb7	-0.04326984
71	0xbeb1af38	-0.34703994
72	0xbeb0a3ee	-0.34500068
73	0xbea46c28	-0.32113767
74	0xbebbe498	-0.3669784
75	0x3e6b6646	0.22988233
76	0xbe387f19	-0.18017234
77	0x3d31d35f	0.04341447
78	0xbe1483c0	-0.14503384
79	0x3dc6cf36	0.09707491
80	0xbe9a9952	-0.301951
81	0xbecc55cc	-0.39909208
82	0xbeae5db6	-0.3405587
83	0xbec00973	-0.3750721
84	0xbda1f5aa	-0.07908185
85	0xbe2f146e	-0.17097637
86	0xbe4286a2	-0.18996671
87	0xbe406fb1	-0.18792607
88	0xbe97d903	-0.29657754
89	0x3d527ee5	0.051390547
90	0xbd0e5ddf	-0.03475749
91	0x3c504c63	0.0127135245
92	0xbe82ab1d	-0.25521174
93	0xbdc68cb9	-0.096948095
94	0xbd505897	-0.050865736
95	0xbf04ad10	-0.5182657
96	0xbddf35a9	-0.10898907
97	0xbe5779d8	-0.21042573
98	0xbd51d6df	-0.051230308
99	0x3d5c3b34	0.053767398
100	0xbd79a391	-0.060947005
101	0x3d0d9561	0.034566287
102	0xbe080300	-0.13282394
103	0x3dbadec1	0.09124518
104	0xbe6cbd1d	-0.23119016
105	0x3dc7d6d0	0.09757769
106	0x3e42be3c	0.19017881
107	0xbe0acd22	-0.13554814
108	0xbdfa3d4e	-0.12218724
109	0xbe89d9d1	-0.26923993
110	0xbec1c0f5	-0.37842527
111	0xbe628588	-0.2212125
112	0xbe040c73	-0.12895374
113	0xbececf17	-0.40392372
114	0xbe50d4f6	-0.20393738
115	0x3e2315ef	0.15926336
116	0x3e940e78	0.2891729
117	0xbeda35da	-0.4261921
118	0xbe155367	-0.14582597
119	0x39fdfa96	0.00048442621
120	0xbe58f100	-0.21185684
121	0xbe32d6de	-0.17464778
122	0xbe4c82f2	-0.19971827
123	0x3d7c84a5	0.061649937
124	0xbe2441f4	-0.16040784
125	0x3caa4386	0.02078415
126	0x3cc9f6f5	0.024653891
127	0xbdaa2b43	-0.08309033
128	0x3eb39285	0.35072723
129	0xbec20ccf	-0.37900397
130	0xbef610da	-0.48059732
131	0x3d8d2015	0.06890885
132	0xbe934a18	-0.28767467
133	0x3d944ae5	0.072408475
134	0x3d728814	0.059211805
135	0xbe13b4b4	-0.14424402
136	0xbda8a0a9	-0.082337685
137	0xbe6688db	-0.22513144
138	0xbde83010	-0.11337292
139	0x3e30004d	0.17187615
140	0xbe7a9ee4	-0.24474674
141	0xbeb889ec	-0.36042726
142	0xbdaf667d	-0.0856447
143	0xbe4f3d16	-0.20238146
144	0x3e623d13	0.2209361
145	0xbe8ac611	-0.27104238
146	0xbe9d0f1b	-0.30675587
147	0xbea3c933	-0.3198944
148	0xbe1c6a40	-0.15274906
149	0xbd588f63	-0.05287112
150	0xbded7274	-0.11594096
151	0xbbba5c57	-0.0056872773
152	0x3e07c70f	0.13259529
153	0xbe8a7175	-0.27039686
154	0x3dcdd95a	0.10051222
155	0xbe66d127	-0.22540723
156	0x3d88a05b	0.066712104
157	0xbe8fc373	-0.28078803
158	0xbebf4c5e	-0.3736295
159	0xbe43619f	-0.19080208
160	0xbebbdd73	-0.3669239
161	0xbd51644d	-0.051121045
162	0xbeaac411	-0.33352712
163	0xbd1e4497	-0.03863963
164	0xbd3ac3fe	-0.04559707
165	0x3cd5dba0	0.026105702
166	0xbe36a317	-0.17835651
167	0xbe734ff1	-0.23760964
168	0xbdd1d02a	-0.10244782
169	0x3e772ea2	0.24138883
170	0xbe044680	-0.12917519
171	0xbec24031	-0.379396
172	0xbd6c27d4	-0.05765517
173	0xbe9b8650	-0.3037591
174	0xbe3b66b8	-0.18300903
175	0xbe9cfea2	-0.3066302
176	0x3df65818	0.12028521
177	0x3d9e69c4	0.07735017
178	0xbe513152	-0.2042897
179	0xbdf61bc1	-0.120170124
180	0xbeba70d1	-0.36414197
181	0x3d9aa1eb	0.07550415
182	0xbdf51b7a	-0.11968131
183	0x3c0aafc7	0.00846476
184	0x3caab0b1	0.020836206
185	0xbe6030c5	-0.21893604
186	0xbecb43d1	-0.39700177
187	0xbec47da1	-0.38377097
188	0xbe1d9e62	-0.1539245
189	0x3d9f9ead	0.07793937
190	0x3ca4d566	0.020121288
191	0xbe2110ac	-0.15729016
192	0xbe8e252d	-0.27762738
193	0xbe2da182	-0.16956142
194	0xbd53911f	-0.05165207
195	0xbeb68f66	-0.3565628
196	0xbe42d658	-0.19027078
197	0xbe3f4464	-0.18678433
198	0x3de38b34	0.11110535
199	0xbe9c2fd4	-0.3050524
200	0xbdb6ee6e	-0.089321956
201	0xbe60e8a6	-0.21963748
202	0x3c8fb66d	0.017543042
203	0xbe29c8b0	-0.16580462
204	0x3d9e7726	0.077375695
205	0xbd8cdfe9	-0.06878645
206	0xbe9b9d94	-0.3039366
207	0xbbcaae64	-0.0061853398
208	0xbe5a3790	-0.21310258
209	0xbed3fc7f	-0.41403577
210	0xbd783b2f	-0.060603317
211	0xbc3f7f5f	-0.0116880825
212	0xbda70279	-0.081547685
213	0xbddd0331	-0.10791624
214	0xbcc337b8	-0.02383028
215	0xbe38d200	-0.18048859
216	0x3e2e2490	0.17006135
217	0xbde62d29	-0.11239082
218	0xbd7469fc	-0.059671387
219	0xbe622470	-0.22084212
220	0xbe71d1d7	-0.23615204
221	0xbe0950de	-0.13409755
222	0x3e1de7f2	0.15420511
223	0xbe3d349e	-0.18477103
224	0xba8d5ada	-0.0010784522
225	0xbf0f4e1e	-0.5597857
226	0xbe9655f6	-0.29362458
227	0xbe9e9532	-0.30973202
228	0xbe836df0	-0.25669813
229	0xbea3856d	-0.31937733
230	0x3d8860e6	0.06659107
231	0xbd9d35d7	-0.07676285
232	0xbeaf2e39	-0.34214953
233	0xbe689696	-0.22713694
234	0x3dcd15fe	0.1001396
235	0x3df46a36	0.11934321
236	0xbe5cf00e	-0.21575949
237	0xbdcd9c0a	-0.10039528
238	0xbdea782e	-0.11448704
239	0x3d9b37b3	0.07578983
240	0xbe71416a	-0.2356011
241	0xbeccb00d	-0.39978066
242	0xbdac2951	-0.08406318
243	0xbe2f9139	-0.17145242
244	0xbe455388	-0.19270146
245	0x3e903b54	0.28170264
246	0xbd756a05	-0.05991556
247	0xbe964a4f	-0.29353568
248	0xbdde827c	-0.10864732
249	0xbd947d8b	-0.07250508
250	0xbea3e552	-0.32010895
251	0xbe7d15ba	-0.2471532
252	0xbcffb4db	-0.031214168
253	0x3dded22e	0.10879932
254	0xbe6e4583	-0.23268704
255	0x3e6150b9	0.2200345

fc2.weight f4 [128, 258]
0	0x3c82ce37	0.015967472
1	0xbdbbdb20	-0.09172654
2	0xbdbbfce9	-0.09179098
3	0xbe13a0e1	-0.14416839
4	0xbdfda5d2	-0.12385143
5	0x3ca66752	0.020312939
6	0xbd443e6f	-0.047911104
7	0xbdfdb22a	-0.12387498
8	0x3cd43729	0.025905209
9	0xbe2ab8f1	-0.16672112
10	0x3d6d14c0	0.057881117
11	0xbc8505f5	-0.016238192
12	0xbdb03c6f	-0.08605277
13	0x3bb844a0	0.005623415
14	0x3cc9e13b	0.024643531
15	0xbdeca8aa	-0.115556076
16	0xbce90b93	-0.028447902
17	0xbc7fb0dd	-0.015606132
18	0xbe789508	-0.24275601
19	0x3d575af8	0.05257699
20	0xbdb75815	-0.08952347
21	0xbba8c8dd	-0.005150898
22	0xbdde460f	-0.10853206
23	0xbdb21ac8	-0.08696514
24	0xbdd48266	-0.10376434
25	0x3d02e353	0.031955075
26	0xbd06cff9	-0.032913182
27	0xbc1080f2	-0.008819805
28	0x3da1c865	0.0789955
29	0xbdd6c407	-0.10486608
30	0x3d05cb16	0.03266438
31	0xbd8c1161	-0.06839252
32	0xbd54c092	-0.05194146
33	0xbe4d1599	-0.2002777
34	0xbe0932e9	-0.13398327
35	0xbb8de8e5	-0.0043307417
36	0x3d422242	0.047395952
37	0xbd3b80d7	-0.045777168
38	0x3cdc91ac	0.02692493
39	0x3cb4523e	0.022011872
40	0x3d9d6cfc	0.07686803
41	0xbdad72c5	-0.08469156
42	0xbddbaee4	-0.10726717
43	0xb9e9c58f	-0.00044588416
44	0x3c795463	0.015217873
45	0xbd8a4b6e	-0.06752668
46	0xbe08bf9a	-0.1335434
47	0xbe462259	-0.1934904
48	0xbdf3b6ae	-0.11900078
49	0xbdfc8025	-0.12329129
50	0x3d765729	0.060141716
51	0xbd853232	-0.065037146
52	0xbd3ba5fe	-0.0458126
53	0xbd41bd13	-0.047299456
54	0xbddd7f61	-0.10815311
55	0x3c97b2cf	0.01851788
56	0xbe0af278	-0.13569057
57	0xbd36862c	-0.04456155
58	0xbd1d0846	-0.03833797
59	0xbdbb6635	-0.09150354
60	0xbcf3c78b	-0.029758235
61	0xbd512a57	-0.05106577
62	0x3d6ef509	0.058339152
63	0xbe1e95b1	-0.1548679
64	0xbe1634ac	-0.1466853
65	0x3c306259	0.010765635
66	0xbba115a8	-0.0049159117
67	0xbd848d08	-0.06472212
68	0xbd9e121d	-0.077182986
69	0x3ca55d46	0.020186078
70	0xbd6752c0	-0.0564754
71	0x3a9a32a8	0.0011764364
72	0x3cd7b1b2	0.026329849
73	0xbd46a911	-0.048501078
74	0x3da8cb21	0.08241869
75	0xbd868e38	-0.06570095
76	0xbe548f85	-0.20757873
77	0xbbeb6df7	-0.0071847397
78	0x3d823326	0.06357412
79	0xbdd483d6	-0.10376708
80	0x3c18c2a6	0.009323752
81	0xbd2050c4	-0.039139524
82	0x3d33ce29	0.04389778
83	0x3cf5565b	0.029948404
84	0xbd6d934a	-0.058001794
85	0x3ac53439	0.0015045471
86	0x3d80b894	0.062852055
87	0xbd5800e9	-0.052735243
88	0x3d30c0e9	0.043152723
89	0xbd23ce34	-0.039991572
90	0xbd70ec6f	-0.05881923
91	0xbe0848ad	-0.13308974
92	0x3d8cd59d	0.06876681
93	0x3b0c9cf1	0.002145585
94	0xbe298323	-0.16553931
95	0x3cd0a577	0.025469525
96	0xbdedf1a7	-0.11618357
97	0x3d5e8741	0.054328207
98	0x3d2e9de5	0.04263105
99	0xbce51258	-0.027962849
100	0x3d8bf236	0.068333074
101	0xbe0b4222	-0.13599446
102	0xbdb4d125	-0.08828954
103	0xbe4dc836	-0.20095906
104	0xbd8ffeac	-0.07030997
105	0xbdbd38cd	-0.092393495
106	0xbdaa93b1	-0.08328951
107	0xbd1debcf	-0.038554963
108	0x3d3706a5	0.04468407
109	0xba2c9f47	-0.00065850135
110	0x3d6fa23e	0.058504336
111	0xbdf7e625	-0.121044435
112	0x3d1386d1	0.036017243
113	0x3d8c1cb2	0.06841411
114	0xbb8e1f36	-0.0043372167
115	0xbdb26fd6	-0.08712737
116	0xbdc11b3e	-0.09429024
117	0xbdac27a5	-0.08405999
118	0x3c3d9762	0.011571737
119	0xbc9cbdc0	-0.019133449
120	0xbd38b63a	-0.04509566
121	0xbd9c6274	-0.07635966
122	0xbdc2f5c4	-0.09519532
123	0x3dc4bdba	0.096065
124	0x3ccd3fb6	0.025054794
125	0x3da6f95b	0.081530295
126	0xbdb8e283	-0.09027579
127	0xbc0ac3df	-0.008469551
128	0xbdcff537	-0.10154193
129	0xbdc959c8	-0.098315775
130	0xbe1db3ea	-0.15400663
131	0x3b50ea35	0.003187788
132	0x3d09505d	0.033523906
133	0xbc798fef	-0.01523207
134	0x3ce2c22a	0.027680475
135	0x3c6226e9	0.013803222
136	0x3cd485c7	0.025942696
137	0xb9ed962f	-0.00045316058
138	0x3da6c60a	0.08143242
139	0xbd3c6f6a	-0.04600469
140	0xbdf6b4f4	-0.12046233
141	0x3cd7371f	0.026271401
142	0xbd06b632	-0.0328886
143	0x3c10c135	0.008835127
144	0xbcf7571c	-0.030192904
145	0x3d491899	0.049095724
146	0xbdb714e2	-0.0893953
147	0xbc6c0cb8	-0.014407329
148	0xbda47845	-0.08030752
149	0x3da2c92a	0.07948525
150	0xbdb91c91	-0.09038652
151	0xbdfcd5ff	-0.12345504
152	0xbd0d3849	-0.034477506
153	0x3cc411f8	0.02393435
154	0xbd88e0f3	-0.06683531
155	0x3d49fd2c	0.04931371
156	0x3ce6ee94	0.028189935
157	0xbda46600	-0.080272675
158	0x3d180c08	0.03712085
159	0x3d384fb2	0.04499788
160	0x3d74256c	0.059606
161	0xbc1450eb	-0.0090524955
162	0xbd8b39e0	-0.06798148
163	0x3d41e2cd	0.047335435
164	0x3d9011ea	0.07034667
165	0x3cbf2051	0.02333084
166	0x3d5fc312	0.054629393
167	0xbd86e15e	-0.06585954
168	0xbe82b0c4	-0.25525486
169	0xbd04cfae	-0.03242462
170	0x3b49b845	0.003078
171	0x3d6be0a2	0.057587273
172	0xbd331921	-0.043725137
173	0x3d1da857	0.03849062
174	0xbe051522	-0.12996343
175	0xbd20413f	-0.039124724
176	0xbe036012	-0.12829617
177	0x3cbc8f33	0.023017501
178	0xbd10fac2	-0.03539539
179	0xbbcc72d9	-0.006239277
180	0x3d78a841	0.060707334
181	0xbdae9cf2	-0.08526029
182	0x3d19aef4	0.037520364
183	0xbe322c21	-0.17399646
184	0xbde2b5da	-0.11069842
185	0xbe2ae892	-0.16690281
186	0xbe01080f	-0.1260073
187	0x3d0d183b	0.034446936
188	0xbda917ba	-0.082564786
189	0x3b98a2fc	0.004658101
190	0xbbe1d6ad	-0.0068920464
191	0xbd6d4d19	-0.057934854
192	0xbe2fc67c	-0.1716556
193	0x3d44e253	0.048067402
194	0x3d70ff3f	0.05883717
195	0xbdb99034	-0.09060708
196	0xbdd5b007	-0.10433965
197	0x3d04be20	0.03240788
198	0xbc879a97	-0.016553206
199	0xbd4072a4	-0.04698433
200	0xbd6e435a	-0.0581697
201	0x3d91e253	0.07123246
202	0x3ca19ac4	0.019727118
203	0xbde49ba5	-0.11162499
204	0xbd8dca3a	-0.06923337
205	0x3d18be81	0.037291054
206	0x3b902979	0.004399475
207	0xbdc51de6	-0.09624843
208	0xbe8ca1c8	-0.2746718
209	0x3d81e26a	0.06342013
210	0x3be4f54d	0.00698725
211	0xbcf887e3	-0.030338233
212	0xbbdda030	-0.0067634806
213	0xbe39d811	-0.18148829
214	0xbd7db5cb	-0.06194095
215	0xbe38a16d	-0.18030329
216	0x3d5117a2	0.05104793
217	0x3da110ba	0.078645185
218	0xbc4da3ef	-0.012551292
219	0xbda03c92	-0.07824053
220	0xbdb4c6c6	-0.088269755
221	0xbd2ebe6a	-0.04266206
222	0xbdbc541d	-0.09195731
223	0x3c266fbf	0.010158478
224	0xbe3d9ed1	-0.18517615
225	0xbda409b1	-0.08009661
226	0xbd1dd34a	-0.03853158
227	0xbda8c7fe	-0.082412705
228	0xbd3c18ad	-0.04592197
229	0xbd1eb6d9	-0.038748596
230	0x3c46551e	0.012105254
231	0x3cb7aa1c	0.022419982
232	0x3e02f20a	0.12787643
233	0xbc9ef92e	-0.019405928
234	0xbe214167	-0.15747605
235	0xbe167041	-0.14691259
236	0x3d79575e	0.060874335
237	0x3d4ec1d0	0.050477803
238	0x3d80fe25	0.06298474
239	0xbe10cd6b	-0.1414086
240	0xbd796dd8	-0.06089577
241	0xbd8b5de8	-0.068050206
242	0xbdd29344	-0.10281995
243	0xbcc407ff	-0.023929594
244	0xbe2b9a4a	-0.16758075
245	0x3bbe3c05	0.0058054947
246	0xbd89b2b3	-0.06723537
247	0x3d848afd	0.064718224
248	0xbbea2823	-0.007145898
249	0x3b34274d	0.0027489245
250	0xbd7cf209	-0.06175426
251	0xbd913884	-0.070908576
252	0x3d7637d3	0.060111832
253	0x3ae4987c	0.0017440463
254	0xbdc6782f	-0.09690892
255	0xbe0c518c	-0.13702983

fc2.bias f4 [128]
0	0x3c8329ba	0.016011108
1	0xbc86474c	-0.016391419
2	0xbd89c33e	-0.067266926
3	0xbd94d69a	-0.072674945
4	0xbe20ac00	-0.15690613
5	0x3dd75a67	0.1051529
6	0xbd6b1782	-0.057395466
7	0xbd7c8261	-0.061647777
8	0xbcef4ae9	-0.029210525
9	0xbe038216	-0.12842593
10	0xbbb8b1fc	-0.0056364518
11	0xbe46d7d6	-0.19418272
12	0xbc561425	-0.013066326
13	0xbd89da85	-0.067311324
14	0xbe07adb4	-0.13249856
15	0xbe5db183	-0.21649747
16	0xbdf9ef92	-0.122038975
17	0x3b9ba773	0.004750186
18	0xbd2abd94	-0.041684702
19	0xbbe25b08	-0.0069078244
20	0xbe121e02	-0.1426926
21	0x3c263e77	0.010146729
22	0xbccb7a01	-0.02483845
23	0xbdef1817	-0.11674517
24	0xbd732a05	-0.059366245
25	0xbdd743fd	-0.105110146
26	0xbdb67e5d	-0.08910821
27	0xbb9fe71c	-0.0048798453
28	0xbd4a6707	-0.04941466
29	0xbd8f20e3	-0.069886945
30	0xbce7b627	-0.0282851
31	0x3ca2f283	0.01989103
32	0x3e885705	0.2662889
33	0x3dc790a0	0.09744382
34	0xbdfd6a96	-0.12373845
35	0xbc8eacae	-0.017416324
36	0xbcc2ef9a	-0.023795892
37	0x3e3d5e1b	0.1849293
38	0x3dcbd4ec	0.09952721
39	0xbd731597	-0.05934676
40	0xbe0364b4	-0.12831384
41	0xbdb95605	-0.0904961
42	0xbd8c8ac1	-0.06862403
43	0xbc8ad84b	-0.01694884
44	0xbd3d4da0	-0.046216607
45	0xbe14489c	-0.14480823
46	0xbe210623	-0.15724997
47	0xbdcafd32	-0.099115744
48	0xbd9f062a	-0.077648476
49	0xba40a927	-0.00073494244
50	0xbda58efe	-0.08083914
51	0xbd83921d	-0.06424353
52	0xbe7fdaba	-0.24985781
53	0xbd8081ea	-0.06274779
54	0xbd52c0de	-0.051453464
55	0xbe086db2	-0.13323095
56	0xbc6d3af6	-0.014479389
57	0xbde92b90	-0.11385262
58	0x3e40d977	0.18832956
59	0xbc5f298c	-0.013620745
60	0xbdaab541	-0.08335353
61	0xbd77651b	-0.060399156
62	0xbd964e2e	-0.0733913
63	0xbd1b4251	-0.03790504
64	0xbe0267a3	-0.12734847
65	0xbdcb15b9	-0.09916253
66	0xbcfb985a	-0.030712295
67	0xbce54828	-0.027988508
68	0xbdad6db0	-0.08468187
69	0x3e5d4863	0.21609645
70	0xbe03f66f	-0.12886976
71	0xbceb2d04	-0.028707989
72	0xbdfe1efd	-0.12408254
73	0x3e10ea3e	0.14151856
74	0xbd800f1d	-0.06252883
75	0xbe1cb748	-0.15304291
76	0xbdf2d5e6	-0.11857204
77	0xbd5a71db	-0.053331237
78	0x3b429586	0.0029691174
79	0xbd6d0d8b	-0.057874244
80	0xbdf29d56	-0.11846416
81	0xbe81cba8	-0.2535069
82	0xbd41d466	-0.0473217
83	0x3e3db7b0	0.18527102
84	0xbd6bfe5b	-0.05761562
85	0xbd31e692	-0.04343278
86	0xbe2d08f1	-0.16897942
87	0xbdce4aa2	-0.10072829
88	0x3c424a26	0.011858499
89	0xbe997901	-0.2997513
90	0xbd9b2643	-0.07575657
91	0xbdfc9b49	-0.12334306
92	0xbe04faee	-0.12986347
93	0x3e49ae66	0.19695434
94	0xbdb700f8	-0.08935732
95	0xbd6b4472	-0.05743832
96	0xbdf0174a	-0.11723192
97	0x3d20c463	0.03924979
98	0xbdb89fc2	-0.090148464
99	0x3c3494bd	0.01102179
100	0xbce7ea6b	-0.028310021
101	0xbe197eee	-0.14989826
102	0xbd966d62	-0.07345082
103	0x3d9f6e62	0.07784726
104	0xbc80dfb4	-0.01573167
105	0xbdeb3fe2	-0.11486794
106	0xbe15d2dd	-0.14631219
107	0x3c1a93b4	0.009434629
108	0xbd0677d9	-0.03282914
109	0x3c667e53	0.014068204
110	0xbd359f99	-0.044341657
111	0x3e5d78de	0.21628138
112	0xbb2c00c9	-0.0026245585
113	0xbbc24207	-0.005928281
114	0xbec2066f	-0.37895533
115	0xbcb64ec4	-0.022254355
116	0xbd051500	-0.03249073
117	0xbe0e9b0a	-0.1392633
118	0xbd7e2030	-0.062042415
119	0xbd4bde7a	-0.049772717
120	0xbd42cc00	-0.04755783
121	0x3dd058fa	0.10173221
122	0xbdcd1b49	-0.1001497
123	0xbdcca120	-0.0999167
124	0xbd9f6471	-0.077828296
125	0x3e28c5e3	0.16481738
126	0xbd93ec57	-0.072228126
127	0x3e1b039d	0.15138097

fc3.weight f4 [128, 128]
0	0x3d9f096d	0.0776547
1	0xbcf13934	-0.029446222
2	0x3d0b2c98	0.033978075
3	0x3d21b232	0.03947658
4	0xbd9ae5cf	-0.07563364
5	0xbd05f7e2	-0.032707103
6	0xbd69061a	-0.056890585
7	0xbd17385a	-0.036918975
8	0x3d4811fa	0.04884527
9	0x3dab9fa3	0.08380058
10	0xbd980c85	-0.07424263
11	0xbd85b6c8	-0.065290034
12	0x3c295440	0.010335028
13	0x3da516e1	0.080610044
14	0xbd2d27a4	-0.042274132
15	0xb9392c00	-0.00017659366
16	0x3b1cc520	0.0023921207
17	0xbd03511e	-0.03205978
18	0x3c734008	0.014846809
19	0x3d3b312e	0.0457012
20	0xbd613215	-0.054979403
21	0xbd85c6d6	-0.065320656
22	0xbd99e13e	-0.07513665
23	0x3cb6d2e4	0.022317357
24	0x3d75bfd6	0.059997402
25	0xbda43f80	-0.08019924
26	0x3d34785e	0.044060104
27	0x3d9d70df	0.07687544
28	0x3da36553	0.079783104
29	0x3cb3c0e4	0.021942563
30	0x3d5fc78e	0.05463367
31	0xbd6b4048	-0.05743435
32	0xbd832cc8	-0.06405026
33	0x3d26f89e	0.040764444
34	0xbc438e88	-0.011935838
35	0x3cbc397c	0.02297663
36	0xbd0c277b	-0.03421734
37	0x3d9c6ee3	0.076383375
38	0x3d4bb1a6	0.049729966
39	0xbd9dcf0e	-0.07705508
40	0x3d1d6c9e	0.038433664
41	0x3d97ca85	0.074116744
42	0xbcef35a2	-0.029200379
43	0x3b152e20	0.0022763088
44	0xbd7ea360	-0.062167525
45	0x3bc70ad0	0.006074287
46	0x3d90c48b	0.070687376
47	0x3d70d24a	0.058794297
48	0xbd47caca	-0.04877738
49	0x3d871aa3	0.065968774
50	0x3c2884b8	0.010285549
51	0x3baf6570	0.0053526685
52	0x3d683886	0.05669453
53	0xbdaa4842	-0.08314563
54	0x3cdaf280	0.026726961
55	0xbca99050	-0.020698696
56	0x3ceb201c	0.028701834
57	0xbcbe0a58	-0.023198292
58	0xbda601cd	-0.08105812
59	0xbd82a150	-0.06378424
60	0x3d38a71e	0.04508125
61	0xbcee709e	-0.029106434
62	0x3cb2e83c	0.021839254
63	0x3d9f52f1	0.07779492
64	0x3b540e60	0.00323572
65	0xbcaa540c	-0.02079203
66	0x3d90d3a3	0.070716165
67	0xbd2f9ab6	-0.042872153
68	0x3d1a430e	0.037661605
69	0xbcc5034c	-0.024049424
70	0xbcbf25a4	-0.023333378
71	0xbb06f500	-0.0020592809
72	0x3cb86bb4	0.022512294
73	0xbc552478	-0.013009183
74	0x3d968377	0.07349294
75	0x3c9d17a8	0.01917632
76	0x3d987737	0.074446134
77	0x3d24d8e2	0.040245898
78	0xbcb645e8	-0.02225013
79	0xbcfe50a6	-0.031044316
80	0x3ce09b5c	0.027417831
81	0xbb818040	-0.003952056
82	0x3d11bf60	0.0355829
83	0x3d95cbef	0.07314288
84	0xbc45c510	-0.012070909
85	0xbb97d960	-0.0046340674
86	0x3dab9775	0.083784975
87	0x3dabf793	0.083968304
88	0xbd84e8af	-0.064896934
89	0xbceced96	-0.028921884
90	0x3d57f78e	0.05272632
91	0x3c0f6ff8	0.008754723
92	0xbdacae2b	-0.084316574
93	0x3d2070fa	0.039170243
94	0xbd9a101b	-0.07522603
95	0x3d784366	0.06061115
96	0x3da69971	0.081347354
97	0x3da914f1	0.082559474
98	0x3ac71140	0.0015187636
99	0x3ad67480	0.0016361624
100	0xbd71e236	-0.059053622
101	0x3c6b3860	0.014356703
102	0x3d6f47ba	0.058418013
103	0xbd97dfec	-0.074157566
104	0x3da61177	0.081088
105	0xbd7d0b36	-0.06177827
106	0x3caed72c	0.021342836
107	0x3b291fc0	0.0025806278
108	0xbcf0d318	-0.029397532
109	0x3b5c26c0	0.0033592433
110	0xbbcf9820	-0.0063352734
111	0x3c6578f8	0.014005892
112	0xbaa26c00	-0.0012391806
113	0xbd255c13	-0.040371012
114	0xbd3b62b3	-0.045748424
115	0xbcb4e7c4	-0.02208317
116	0xbd91abb5	-0.07112829
117	0x3caa8fe8	0.020820573
118	0xbc7b2510	-0.015328661
119	0x3c1e72e0	0.009670943
120	0xbb8d9280	-0.0043204427
121	0xbd82d105	-0.063875236
122	0x3cc19a20	0.023633063
123	0x3d6c3186	0.057664417
124	0x3d37e866	0.044899367
125	0x3cb5c3d8	0.022188112
126	0x3da32327	0.07965689
127	0xbcaf3ac8	-0.021390334
128	0x3b57fac0	0.0032955855
129	0x3c9ec0d0	0.01937905
130	0xbd351fb0	-0.044219673
131	0xbcab5258	-0.020913288
132	0x3db2341b	0.087013446
133	0x3c3f13d8	0.011662446
134	0x3daeb17b	0.085299455
135	0xbd5c424c	-0.053774163
136	0x3d09d684	0.033651844
137	0x3b5b0440	0.0033419281
138	0xbd86ade0	-0.06576133
139	0x3c557a58	0.013029657
140	0xbd9d8da6	-0.07693033
141	0xbd850fbf	-0.06497144
142	0x3d6bfcde	0.0576142
143	0xbd75406b	-0.059875887
144	0xbb3404a0	-0.0027468577
145	0xba1a3300	-0.00058822334
146	0xbb82d640	-0.0039928257
147	0x3d303fc6	0.04302957
148	0xbd9b8f3e	-0.07595681
149	0x3da423cb	0.080146395
150	0x3da32723	0.07966449
151	0x3c1fa048	0.009742804
152	0x3c5f5e48	0.013633318
153	0x3d150b70	0.03638786
154	0xbd48894f	-0.048959073
155	0xbcf8084a	-0.03027739
156	0xbd3ac498	-0.045597643
157	0x3cd49138	0.025948152
158	0x3d94c729	0.07264549
159	0xbd734950	-0.059396088
160	0x3d8c807b	0.06860443
161	0x3c72bf08	0.014816053
162	0xbd8a8474	-0.06763545
163	0xbdaccb8d	-0.08437262
164	0xbd571462	-0.052509673
165	0x3d987d71	0.07445801
166	0x3da423b9	0.08014626
167	0xbda1b995	-0.07896725
168	0xbcca393c	-0.024685495
169	0xbb08a8a0	-0.0020852461
170	0x3da651e7	0.081210904
171	0xbc6f9180	-0.014622092
172	0xbca0b4e4	-0.019617505
173	0xbba61bc0	-0.005069226
174	0x3d92683b	0.07148787
175	0xbd915f68	-0.070982754
176	0x3d417d3e	0.04723858
177	0xbd0e4de6	-0.03474226
178	0xbcf0f350	-0.029412895
179	0x3db172fd	0.086645104
180	0x3daa3675	0.08311168
181	0xbd4a3092	-0.049362727
182	0xbb9e0cc0	-0.0048232973
183	0xbc6286f8	-0.013826124
184	0x3d1bfdfa	0.038084008
185	0xbd9e272f	-0.077223174
186	0xba434b80	-0.000744991
187	0xbcc88eb0	-0.024482101
188	0x3d018262	0.031618483
189	0xbda362ec	-0.07977852
190	0x3c4b9330	0.012425229
191	0xbd88d7e6	-0.06681804
192	0xbd44c08a	-0.048035182
193	0x3da8304f	0.08212339
194	0x3cc533e8	0.024072602
195	0x3daa7ded	0.083248
196	0xbd887249	-0.06662423
197	0xbd5e4b53	-0.054271054
198	0xbd9beab4	-0.076131254
199	0xbcd3916c	-0.025826178
200	0xbd56258f	-0.052281912
201	0x3d89e6e5	0.06733493
202	0xbc9e3ae8	-0.019315198
203	0xbdaf1a81	-0.08549977
204	0x3bd16370	0.0063900277
205	0x3d9cca5f	0.07655787
206	0xbc3eeb38	-0.01165276
207	0xbc2f8d18	-0.010714792
208	0x3d62324e	0.055223756
209	0x3c316f58	0.010829769
210	0x3d2401d2	0.0400408
211	0xbd67dcdd	-0.056607116
212	0xbdb275d2	-0.08713879
213	0x3d2d3b2e	0.042292766
214	0x3d90960f	0.070598714
215	0xbbad1610	-0.005282171
216	0x3d960967	0.07326012
217	0x3b0da040	0.002161041
218	0x3d58d83e	0.0529406
219	0xbcfbfaec	-0.030759297
220	0xbd920f8f	-0.07131874
221	0x3c3f3c50	0.011672094
222	0xbd5e39db	-0.054254394
223	0x3cb1d40c	0.021707557
224	0xbd4302e6	-0.047610186
225	0xbda2199f	-0.07915043
226	0xbcbbac2c	-0.022909246
227	0xbd4dd672	-0.05025334
228	0xbc0aae08	-0.008464344
229	0xbc542778	-0.012948863
230	0xbd873cb2	-0.066033736
231	0xbb7b59e0	-0.003835313
232	0xbd10ca87	-0.035349395
233	0xbd1d6c45	-0.038433332
234	0x3b60cf20	0.0034303144
235	0xbd8edda4	-0.06975868
236	0x3cb48380	0.02203536
237	0x3cf35d3c	0.029707544
238	0xbd8f8395	-0.07007519
239	0x3cb8e7a0	0.022571385
240	0x3d7f49d2	0.06232626
241	0xbda7fdfe	-0.08202742
242	0x3cbbf628	0.022944525
243	0xbdaa9b8e	-0.08330451
244	0x3b9ce010	0.0047874525
245	0xbdb34104	-0.08752635
246	0xbd022742	-0.03177572
247	0xbc748fc0	-0.014926851
248	0x3d102c7a	0.035198666
249	0xbaacac00	-0.0013173819
250	0x3d0242ce	0.03180199
251	0xbd1ee169	-0.038789187
252	0xbc6492e8	-0.013951041
253	0x3b8a17b0	0.0042142496
254	0x3c529600	0.012853146
255	0x3d78c35e	0.06073319

fc3.bias f4 [128]
0	0xbc310c68	-0.010806181
1	0xbc849368	-0.01618357
2	0x3bbd2020	0.005771652
3	0xbc9c63d4	-0.01909057
4	0x3d5e5096	0.05427607
5	0x3daedabd	0.08537815
6	0xbda15673	-0.07877817
7	0x3d464e8a	0.048414744
8	0x3d80cfe9	0.06289656
9	0x3d8cd62b	0.06876787
10	0xbcf9fd40	-0.030516267
11	0x3d0d86e2	0.034552462
12	0x3d42eefe	0.047591202
13	0x3da10ddb	0.07863971
14	0x3d880657	0.06641834
15	0x3d4d54f6	0.050129853
16	0x3d91b22f	0.07114064
17	0xbd5f35b5	-0.05449458
18	0x3bb091a0	0.0053884536
19	0x3d261abe	0.040552847
20	0xbd8cc911	-0.06874288
21	0x3d5e5e9a	0.054289438
22	0x3c84da40	0.016217351
23	0xbd077d85	-0.03307869
24	0xbd1c63d2	-0.038181134
25	0x3db0c813	0.08631911
26	0x3cb68d0c	0.022284053
27	0xbd997563	-0.07493093
28	0x3da3cbc1	0.07997847
29	0x3aaad740	0.001303412
30	0x3c144e08	0.009051807
31	0x3d8407f5	0.0644683
32	0xbd92d972	-0.07170381
33	0xbd833f6d	-0.06408582
34	0xbc06ee50	-0.008235529
35	0x3d8602cd	0.06543503
36	0x3db2e659	0.087353416
37	0x3cc1edb4	0.023672916
38	0x3d93b419	0.07212085
39	0x3d1fed72	0.039044805
40	0x3d7406ea	0.059576906
41	0xbc0d0650	-0.008607462
42	0xbcfbbee8	-0.03073068
43	0x3d8d75b1	0.069072135
44	0xbda0566a	-0.07828982
45	0x3d757512	0.0599261
46	0xbca319f8	-0.019909844
47	0xbb2feec0	-0.0026845187
48	0xbd125fcf	-0.0357359
49	0x3cafe378	0.02147077
50	0xbd466f15	-0.04844578
51	0x3d671306	0.056414627
52	0xbc0cb168	-0.008587219
53	0x3d46eb62	0.048564322
54	0xbd4add4a	-0.049527444
55	0x3c7d8810	0.015474334
56	0x3d66ffee	0.056396417
57	0xbcd0fc28	-0.025510862
58	0x3d683dbe	0.056699507
59	0x3bc99fd0	0.0061530843
60	0x3d9e7c9d	0.07738612
61	0xbb4f1060	-0.0031595454
62	0xbd9b2560	-0.07575488
63	0xbd3680d5	-0.044556458
64	0xbc6cde70	-0.01445733
65	0xbced0694	-0.0289338
66	0x3d509c4e	0.050930314
67	0xbd387da9	-0.045041714
68	0x3da70f3f	0.08157205
69	0xbc5864d0	-0.013207629
70	0xbd45e7fd	-0.048316944
71	0xbbff5470	-0.007792048
72	0x3cb45844	0.022014745
73	0xbcb1e99c	-0.021717839
74	0xbc91afe0	-0.017784059
75	0x3c1c0548	0.0095227435
76	0x3d5fb6ba	0.05461762
77	0x3dacd8bd	0.08439777
78	0xbcef82dc	-0.029237203
79	0xbd436f27	-0.047713425
80	0x39f76500	0.00047186762
81	0x3d8c717f	0.06857585
82	0x39b68e00	0.00034819543
83	0x3ba0a690	0.0049026683
84	0xbd8be22a	-0.06830247
85	0x3d8c6383	0.06854918
86	0xbd42e760	-0.047583938
87	0xbd193e79	-0.037413094
88	0x3d696bb6	0.056987487
89	0xbd061702	-0.032736786
90	0xbd8b87c5	-0.06813005
91	0x3db2983b	0.08720442
92	0xbc346ca0	-0.011012226
93	0xbd462645	-0.04837634
94	0x3cbf9ef4	0.023391224
95	0xbca86cd0	-0.020559698
96	0xbcc4bd5c	-0.024016075
97	0xbda45f81	-0.080260284
98	0x3c85345c	0.016260318
99	0xbcfb1c02	-0.030653004
100	0xbd6bb533	-0.057545852
101	0x3d0cc2e6	0.034365557
102	0xbcff294e	-0.031147625
103	0xbd815404	-0.06314853
104	0x3c705570	0.014668807
105	0xbd86d102	-0.06582834
106	0x3cccca5c	0.024998836
107	0x3d8d7a99	0.06908149
108	0x3d7fbc62	0.062435515
109	0xbd110d23	-0.03541292
110	0xbd6db54a	-0.05803422
111	0xbb7c6ba0	-0.0038516298
112	0x3d888bbd	0.06667278
113	0xbd47e2b8	-0.0488002
114	0xbc810d00	-0.01575327
115	0xbd3495fa	-0.04408834
116	0x3d8a7ae7	0.06761723
117	0x3c7417d0	0.0148982555
118	0xbc8455e4	-0.016154237
119	0xbcf9adec	-0.03047844
120	0x3d25ca7a	0.0404763
121	0xbda835cf	-0.08213388
122	0x3b94f9a0	0.004546359
123	0x3d8489e5	0.06471614
124	0x3be53650	0.006995
125	0x3d7a3726	0.06108775
126	0x3c80f2a8	0.015740708
127	0x3d561202	0.052263267

fc4.weight f4 [1, 128]
0	0xbc4796d8	-0.01218196
1	0xbcd82625	-0.026385376
2	0xbaf472ba	-0.0018649914
3	0x3b9230a1	0.0044613634
4	0xbcbcedad	-0.023062551
5	0x3c032569	0.008004525
6	0xbc86cf8c	-0.016456388
7	0x3cb046e1	0.021518173
8	0xba2c0601	-0.0006562174
9	0xbc813def	-0.015776603
10	0x3b0c5a02	0.0021415954
11	0xbce2dffe	-0.027694698
12	0xbc0aba05	-0.008467202
13	0xbd725872	-0.05916638
14	0xbc9dc7bb	-0.019260278
15	0xbc39b1bb	-0.011333878
16	0xbc82a718	-0.015948817
17	0x3b770a1f	0.0037695242
18	0x3c9ade03	0.018904692
19	0x3cfe13bd	0.031015271
20	0x3d84aae5	0.06477908
21	0xbddc86cd	-0.10767899
22	0xb9bd6628	-0.00036125001
23	0xbcf90526	-0.030397963
24	0xbd3b7685	-0.045767326
25	0xbb086e1e	-0.0020817588
26	0xbc723c0f	-0.014784827
27	0xbc554964	-0.013017986
28	0x3ba53929	0.0050422144
29	0x3c8d5bd4	0.017255701
30	0x3a818433	0.0009881317
31	0xb97900f8	-0.00023746851
32	0x3ca2a519	0.019854115
33	0x3c345595	0.0110067325
34	0x3bf085d4	0.0073401723
35	0xbc5bf91d	-0.013426092
36	0x3bb00dec	0.0053727534
37	0xbcf09dc6	-0.029372107
38	0xbcb1adf7	-0.021689398
39	0x3c322aec	0.010874491
40	0x3c23bc67	0.009993649
41	0xbc9a2881	-0.018818142
42	0xbcb901eb	-0.022583922
43	0x3a88e3eb	0.0010443901
44	0xbca326b4	-0.019915916
45	0xb983f874	-0.0002517138
46	0x3c520586	0.0128187
47	0x3c2efa37	0.010679773
48	0xbc8426df	-0.016131816
49	0xbc50dace	-0.01274748
50	0x3d0677a3	0.03282894
51	0xba27e897	-0.0006405203
52	0xbd0ecd53	-0.03486378
53	0x3cfdf39b	0.03099995
54	0xbc599e05	-0.013282304
55	0xbcc7bf84	-0.024383314
56	0x3b1165c4	0.0022185901
57	0xbcb07de7	-0.02154441
58	0x3c7449ad	0.014910144
59	0xbb775efa	-0.003774582
60	0xba14be08	-0.0005674069
61	0x3b281455	0.0025646884
62	0x3b6bc2e0	0.003597431
63	0x39e4866b	0.00043587698
64	0xbb889183	-0.004167737
65	0x39d69f97	0.00040936164
66	0x3ca972eb	0.02068468
67	0x3cba3ac0	0.022733092
68	0xb8b62d6e	-8.686898e-05
69	0x3c269cfc	0.010169264
70	0xbccd5ed3	-0.02506963
71	0x3c1d9958	0.0096190795
72	0x3ccb2a80	0.024800539
73	0x3d0eecb5	0.03489371
74	0x3b834468	0.0040059574
75	0xbcc674d4	-0.02422563
76	0xbc359406	-0.011082655
77	0xbc167eef	-0.009185537
78	0x3b28e98b	0.0025773968
79	0xbbcef9b7	-0.0063163894
80	0xbbadfae7	-0.005309451
81	0xbd693ffa	-0.05694578
82	0xbc92e082	-0.01792932
83	0x3d61baf1	0.05510992
84	0x3c1e04fb	0.009644742
85	0x3c72a1f2	0.014809119
86	0x3b7433d9	0.003726235
87	0xbc970264	-0.018433757
88	0xbd3b5dec	-0.045743868
89	0xbd0071d6	-0.031358562
90	0xbb8ad8b8	-0.0042372607
91	0xbc805854	-0.015667118
92	0x3be7ab30	0.0070699677
93	0xbcf79f62	-0.030227367
94	0xbc80f5df	-0.01574224
95	0x3adc3310	0.0016799886
96	0xbc94c919	-0.018162297
97	0xbcaba905	-0.020954618
98	0x3cb2ac7b	0.02181076
99	0xbcdc561c	-0.026896529
100	0xbb2a77c2	-0.0026011323
101	0xbc974bb4	-0.018468715
102	0x3b2ba831	0.002619278
103	0x3ce30eaf	0.027716963
104	0x3c7a4efe	0.015277622
105	0xba505183	-0.00079467165
106	0xbbee4a1b	-0.0072720177
107	0x3b8cd70f	0.004298098
108	0x3cfc45e3	0.030795043
109	0x3c7d91ff	0.015476703
110	0x3c2766b1	0.010217355
111	0xbc44cca4	-0.012011681
112	0x3c76f8ee	0.015073998
113	0xb9fc9579	-0.0004817655
114	0x3ca3b6f1	0.019984694
115	0x3b8afba1	0.0042414223
116	0x3acf9a76	0.001583888
117	0x3bf6a025	0.007526415
118	0xbd863355	-0.065527596
119	0xbc51c4f1	-0.012803302
120	0xbc94e642	-0.018176202
121	0x3c5e9e28	0.013587512
122	0x3ccf3f42	0.025298718
123	0xbc38838e	-0.011261834
124	0xbca86522	-0.020556036
125	0x3c45bcd7	0.012068949
126	0x3b3698f4	0.0027862163
127	0xbcf25f37	-0.029586418
