checkpoint_actor.pth (torch_old, 159209 bytes, 6 tensors)

fc1.weight f4 [256, 24]
00000000: da36 963e 8040 69bd ac33 083d 7eda 25bd
00000010: f287 b8bd 3aa4 223e 13d1 1a3d ec92 153d
00000020: afab a43e 9558 793d 43a0 553d 1162 8f3d
00000030: 62d1 a1bd d379 523e 1fe7 e93d cc54 fc3d
00000040: a711 9f3e 3686 0e3e a3f5 3ebd 9887 8e3e
00000050: f60a 04be 5a6a 7e3e 54de 993c f1ce 6e3e
00000060: b22e 8d3e 7a36 31be 2b4f e13c 4ed7 373e
00000070: 6878 913b e3a8 81be 6b8a 133d 06b8 b13d
00000080: 9e1e 723e 7775 21be 5eda 40bc 228b f53c
00000090: 8b36 46bd 5bf4 68be 3e72 72bd 5dfb 233d
000000a0: 491c 813e bb06 21bd f879 08bd 7da6 163e
000000b0: 5025 05bd 46bb edbd 0be1 423c 4fd4 de3d
000000c0: ff41 a63d 09cb 1f3e a293 6f3d a627 983d
000000d0: 9f07 e53d 6e9c 893e 27da c6bc d596 a63c
000000e0: 9394 2d3e de8e 143e 5c78 aebc 9109 24bd
000000f0: 8980 c63e 1616 2c3e 5f83 0abb c094 a5bc
00000100: c18f 473e 53b1 863e 5f97 a9bd 02d2 4a3e
00000110: 7583 153f 1e33 db3c 1a36 15bd 92df 8b3e
00000120: ba45 823e 76a2 853d 9e17 ab3b 1721 b13b
00000130: 2624 3b3e 696e c7bd f4e7 ed3c ebd3 cbba
00000140: a1b6 643e 99fc bf3d f930 a8bd 62bd 883d
00000150: cc09 663e 4eb2 27be ace5 32bd 71f0 0d3e
00000160: 9341 9f3e eb1f 2d3e a305 63bc 38dd 123e
00000170: 2fe8 553e 4295 00be 7537 a93d ba21 313e
00000180: e89b 0a3e 8869 4abd a88d b6bc 61cc 10bc
00000190: 9fdb 8e3e 9bdc c9be c219 03be bb09 a6bd
000001a0: 0840 183e 3f15 7c3d b98c 2fbd a595 a5bd
000001b0: c22e a53e a315 d2be f502 abbc 94d8 5dbc
000001c0: 5001 633e 88f4 c43d 6a07 1cbd 88e3 3abe
000001d0: 87e8 873e 2114 cebe c041 103a 44ff e9bd
000001e0: 85d5 973e 8641 bcbd 1596 8cbd 0f71 133d
000001f0: 744b 53be d8c2 30be 03c5 1c3c ff1a 5e3d
00000200: d934 a63e 71c0 a7bc 18ee e63d c0f6 28bd
00000210: 9438 91be 14f2 96bc 63ae 383e 6149 7abc
00000220: 3dd7 bb3e 4db8 78bd eabe 8dbd 4ea6 473e
00000230: c2b7 39be 46a9 3b3e babb 79bd 1cd3 2c3e
00000240: 6be8 573e acc8 8dbe a39c 8abd cce0 83be
00000250: d623 a5be 04e5 99be 12cd 24bd d411 2cbe
00000260: 4e8b 893e 0f4c 69be 136a 2bbd 1213 a33e
00000270: 72ca 4dbe d4cd 59bc f036 81bd 914a a73e
00000280: ff36 653e 4df7 34be 0555 71bd 8a5e b53d
00000290: 7399 0f3e 96d2 b73d 16be 79bd b960 f43d
000002a0: dd7c 5e3e 29f3 69be 4387 e6bc d64f 4abe
000002b0: d669 093d 5ee8 7cbe 90d7 6fb9 6239 79be
000002c0: fbc0 423e b952 57be 0596 d1bc 0494 6fbe
000002d0: 4434 33bd 0e0c 793d 806f 47bc 1ee4 67be
000002e0: 1c47 8f3e 3904 71bd 42af 99bc f5e0 863d
000002f0: a48d b1bd 3f12 443e 63b2 6c3d f7ee 3d3d
00000300: 1ae8 ff3d b490 47bc 9a99 c53c ac39 953e
00000310: 63e1 433e 8daa 81be f0b3 d93c 3a3d 883e
00000320: 6614 593e 2ff6 f13d 1a0d 11bd c614 f63d
00000330: 6453 5a3e 04ec 68be b605 79bc 2f60 143e
00000340: c691 943e 37c0 e43d f1de fa3d 6299 b9bd
00000350: c6e9 6f3e 92dd fcbd 478f 373d a3a9 20be
00000360: 56ad a63d 7d8e 86bd 3090 32bd 1f08 1a3c
00000370: 8072 573e 1c00 debe 240c 54bd 9c1c dd3c
00000380: 0ce3 ddbb e784 94bd 5a5e 7aba 55f6 21bd
00000390: af27 9f3e e634 15bf 7a55 3dbd bef3 e0bd
000003a0: 606e 853d 053d d7bd ee5a fabd 845b e0bd
000003b0: 567f ce3e 3152 31bf 432d cfbc 03ed 0abe
000003c0: 239a 7d3a a482 233f 326c 583e 71fe dfbc
000003d0: 9edb b6be ee02 983e f406 2d3e 15e0 e83c
000003e0: 5b9c 683d 7a2d 2e3f cd3e 7fbd 92a9 963c
000003f0: ee9c 303e 87cd eb3d f955 d4bd c653 233d
0.29338723 -0.056946278 0.033252403 -0.040491574 -0.090103045 0.1588296 0.037797045 0.03651707
0.32162234 0.060875494 0.05215479 0.070011266 -0.07901265 0.20554285 0.11421036 0.12320861
0.31068155 0.13918385 -0.046620976 0.27837825 -0.12894806 0.24845257 0.018782772 0.2332113
0.27574688 -0.17305937 0.02750357 0.17953226 0.0044394024 -0.25324163 0.036020678 0.08677678
0.23644492 -0.15767466 -0.011770813 0.02997357 -0.04839186 -0.22749464 -0.05919098 0.04003464
0.25216892 -0.03931306 -0.033319443 0.14711948 -0.032506287 -0.11607985 0.011894475 0.108803384
0.081180565 0.15604796 0.058490403 0.07429437 0.11183094 0.2687716 -0.024273945 0.020335594
0.16951208 0.14507625 -0.021297626 -0.040048186 0.3876994 0.168053 -0.0021135432 -0.020212531
0.19488432 0.26307163 -0.08280825 0.19806674 0.5840371 0.026757773 -0.03642855 0.27319008
0.25443822 0.065251276 0.0052213212 0.005405556 0.18275508 -0.09737856 0.029041268 -0.0015550827
0.22335292 0.09374351 -0.08212466 0.06676747 0.22464675 -0.16376612 -0.043676063 0.13861252
0.31104717 0.16906707 -0.013856324 0.14342201 0.20889352 -0.12556937 0.08262531 0.17298022
0.13536036 -0.04941705 -0.022284344 -0.00883779 0.27901933 -0.3942612 -0.12802795 -0.08107325
0.14868176 0.0615437 -0.042858813 -0.08085183 0.32262236 -0.41032133 -0.020875433 -0.013540406
0.2216847 0.09616953 -0.038093008 -0.18250859 0.26544592 -0.40249732 0.00055029616 -0.11425641
0.2965509 -0.09192185 -0.068645634 0.035996493 -0.20634252 -0.17261827 0.009568456 0.054224964
0.32462195 -0.020477505 0.112758815 -0.041250944 -0.28363478 -0.018425979 0.18035273 -0.015276284
0.3668765 -0.060722638 -0.069211796 0.19497034 -0.18136504 0.18326291 -0.060970046 0.16877407
0.21084754 -0.27692163 -0.06768157 -0.25757444 -0.32253903 -0.30057538 -0.040234633 -0.16803676
0.26864094 -0.2278292 -0.041849207 0.31850487 -0.20096758 -0.013293702 -0.063093066 0.32674077
0.2238426 -0.17672463 -0.05891897 0.088559225 0.1402338 0.08975713 -0.060972296 0.11932511
0.21727319 -0.22846664 -0.02814067 -0.19757017 0.0335482 -0.24698016 -0.0002287312 -0.24338296
0.19018929 -0.2102765 -0.02558423 -0.23396307 -0.043751016 0.060802512 -0.01217258 -0.22645614
0.2798394 -0.058841918 -0.018760327 0.06585876 -0.08669594 0.19147585 0.05778731 0.046370473
0.12495442 -0.012180496 0.024121094 0.29145563 0.19128947 -0.25325432 0.026575059 0.26609212
0.21199188 0.11814534 -0.035412885 0.12015681 0.21320873 -0.22746283 -0.0151991155 0.14489816
0.29017466 0.111694746 0.12249554 -0.090624586 0.23429021 -0.12346949 0.044814374 -0.15689711
0.0813853 -0.06570146 -0.04359454 0.00940135 0.21039772 -0.43359458 -0.05176939 0.026991181
-0.006771451 -0.072519116 -0.00095508026 -0.03954156 0.31084964 -0.5828384 -0.046224095 -0.1098399
0.06515193 -0.105096854 -0.12224375 -0.10954955 0.40331525 -0.6926604 -0.025290137 -0.13566975
0.0009674152 0.63871217 0.21135023 -0.027343007 -0.3571443 0.29689735 0.16897184 0.028427163
0.056789737 0.6803814 -0.06231575 0.018391404 0.17247364 0.115138106 -0.103679605 0.039874814

fc1.bias f4 [256]
00000000: dd45 7abe d0ce b5bd 62c1 aebd d4ab 0ebe
00000010: aa23 78be ae63 cebe 6b66 debe 776c 8bbe
00000020: 5a6d cebe 5ba6 6abe de61 a93d 26bd 5dbe
00000030: 7aa2 adbc 1c26 b7be 4ce1 fdbd 8212 56bd
00000040: 90b6 2e3c 8ea2 15bd 91b6 cbbd 330a 6fbe
00000050: b04d 483d 0eb1 c2be 81c7 81bd 9d99 59be
00000060: 7a56 74be 01db 84be 038b 023d 15f2 79be
00000070: cc76 4ebe b6d9 9bbe 7e91 6ebe d1ff d1bd
00000080: cffd 21be 0290 81bd e0c3 c1be 59cc 41be
00000090: 03af c1be 5d03 fc3d b14a 97be 63d8 9bbd
000000a0: 35e4 84be 3eaf febd 5482 223e c0e5 90be
000000b0: 1c6c f9bd 7f9d 78be 658b 3dbe cc42 dfbe
000000c0: f940 9e3d 5c6a bbbd d53f 4ebe 13c8 383d
000000d0: 6c83 8fbe 8b63 3fbe c3ea cbbd 5621 acbd
000000e0: b0ca 4f3d 5701 97be 1e7e 51be ac55 353e
000000f0: 4c8c 7bbc 9c6f 0abc 8b50 80be f167 09be
00000100: 60c1 fabd 86da 59be 35ad 3cbe 53b9 4b3d
00000110: ec69 8ebe a263 883d 7e0d 80be 9ff5 6dbe
00000120: a848 dbbc 6610 5fbe 8167 b1bd ae0a 983d
00000130: f76f 003e 7c97 c43d f0e7 16be ec25 31be
00000140: d915 ddbd d81e c63c 2351 5abe c7f1 aabe
00000150: 6eb0 bebd 4bd8 80bd 4f1a 51be 24e6 d5bd
00000160: b8b6 afbe b979 71be ba13 02be a8d1 2d3e
00000170: d8ea 90be beab 8fbd dce3 72be eeee babe
00000180: ec9b 5bbc d3f2 0abe 1cc3 aebd 5923 14be
00000190: 72be 95bd 7dae 073e 5f63 2abd 082f fbbd
000001a0: ca06 94be d75d 023e 7823 303e a845 f6ba
000001b0: db6a 84bd 0729 78be fc46 4cbd f3d5 9abe
000001c0: b48b b7bd e3b8 6fbe 0a3c 1ebe 89c4 10be
000001d0: 9f6c d03d 1807 83be 402e 84be 63e4 fbbc
000001e0: b2f6 93be 9dc2 233d c19a 883b 32c5 fc3d
000001f0: 2f37 acbc ff39 70bd 4709 83bc c5ab 1cbe
00000200: 2fe7 dcbd 9837 a3be 8c70 b6be 6bc2 22be
00000210: 26d0 46be e6e3 2cbc 5d78 673d 0e63 18bd
00000220: d1cf e4bd 7653 f3bd 22b0 cdbd ed8e ad3e
00000230: 8b6d 74be ed29 d2be 379f e8bd 2621 52bd
00000240: 30fb f23d e5dd 9bbe b068 61be 65b3 20be
00000250: 7834 90be 2acc 1c3e 9897 22be 34d6 9d3d
00000260: 534e db3b c906 18be f346 a2bc 58e5 39be
00000270: a1d5 a43d 934a a2bc 5eee 0ebe 6db0 a63d
00000280: d822 c1be 5469 d0bd 6080 fbbd 1184 edbd
00000290: ba5a bfbe 824c a63e e7e3 93be 7fee d6bc
000002a0: d86d 39bd 7514 103c 84fa c8bd 78eb eabd
000002b0: 7254 c1be e855 95be 9541 d8be 9941 93be
000002c0: 0400 1d3d 3975 db3d 2511 45be f107 c23d
000002d0: 97d3 82be 8f5d da3d e14e 963e 22c4 33be
000002e0: 018f 413e 6168 d83c d676 aabe a00f ffbd
000002f0: 1416 92be afc6 a83d baa6 2a3e 94a2 6cbe
00000300: 2be0 78bd 9728 9bbe f971 34bd 7f81 c5be
00000310: 1c9e 44be 0ba0 42be 72f7 123d 9453 8abe
00000320: 09b6 18be 1d67 f2bd 8192 81bd d255 43bd
00000330: 637f 02bd bf66 f03c 3e10 95be bee5 c33d
00000340: b202 4bbe 197d 86be a09b b0bd fcd2 84bd
00000350: 20df e6ba 82c4 32be 3739 a4be f99f aebe
00000360: 3d99 29be 3963 48be 238c c03d 35e7 543e
00000370: 59a9 9abe 386d a0bd 49cd 883d 0b2f 533d
00000380: 7692 78bc 53be ddbd 99e3 69bd 3f55 fabd
00000390: 607a ae3d 71aa babd d35a 2f3d 77ee bb3a
000003a0: 80b9 adbe fe4f 22be e4f4 913c f3fc 91bd
000003b0: fed9 d5bd cffc a3bd c20a 0fbe be3a 0bbd
000003c0: 98ff 81be 617c a0bd 4687 aa3d 9a82 12be
000003d0: 2da8 2abe ba63 1cbd 2c3e 2d3c 5a7e 76be
000003e0: 76bb 0bbd 9bcc 6dbe 2d27 30bd c5b4 7abe
000003f0: dccb 9cbd 5753 6a3e 43cc e9be e4f0 bebd
-0.24440713 -0.08877337 -0.085329786 -0.13932735 -0.24232355 -0.40310425 -0.43437514 -0.2723119
-0.40317804 -0.22915022 0.0827062 -0.21654186 -0.021195639 -0.35771263 -0.123964876 -0.052263744
0.0106636435 -0.036531977 -0.09946931 -0.23343734 0.048902214 -0.38025707 -0.063368805 -0.21250005
-0.23861113 -0.25948337 0.031870853 -0.24408753 -0.20162505 -0.30439538 -0.23297688 -0.10253871
-0.15819477 -0.063262954 -0.37844753 -0.18925609 -0.37828836 0.12305329 -0.29549173 -0.07609632
-0.25955358 -0.124357685 0.15870029 -0.28300285 -0.12178823 -0.2427883 -0.18510206 -0.4360565
0.07727236 -0.09151146 -0.20141537 0.04511268 -0.28029954 -0.18690316 -0.099568866 -0.08404796
0.050730407 -0.2949321 -0.20458266 0.17708462 -0.015353274 -0.008449461 -0.2506145 -0.13418557
-0.122439146 -0.21274766 -0.18425448 0.049737286 -0.27815187 0.066596285 -0.25010294 -0.23238228
-0.026768044 -0.217836 -0.0866232 0.07423912 0.12542711 0.09599206 -0.14736915 -0.17299622
-0.10795183 0.02418463 -0.21320014 -0.33387586 -0.09310995 -0.062912546 -0.20420192 -0.104442865
-0.3431909 -0.2358159 -0.12702838 0.16974509 -0.28304172 -0.07015179 -0.23719734 -0.36510414
-0.013403874 -0.13569193 -0.08533308 -0.14466609 -0.07311715 0.13250156 -0.041598674 -0.1226483
-0.2891143 0.1273111 0.1720103 -0.001878907 -0.064656936 -0.242344 -0.049872383 -0.30241355
-0.08962193 -0.23410372 -0.1545259 -0.14137472 0.10176968 -0.2559135 -0.25816536 -0.030748552
-0.2889915 0.03998052 0.0041688387 0.123422995 -0.021022407 -0.05864906 -0.015995635 -0.152999
-0.10786282 -0.31878352 -0.3563274 -0.15894477 -0.1941534 -0.010552382 0.05651127 -0.03720384
-0.1117245 -0.11881153 -0.1004336 0.33898106 -0.23869912 -0.41047612 -0.11358493 -0.051301144
0.118643165 -0.3044273 -0.22012591 -0.15693434 -0.2816503 0.15312257 -0.15878141 0.07706872
0.0066926866 -0.14846338 -0.019809222 -0.18153894 0.08048559 -0.01981095 -0.13958117 0.08139119
-0.37721896 -0.1017634 -0.12280345 -0.11597455 -0.37373906 0.32480246 -0.28884813 -0.02623677
-0.04527077 0.00879394 -0.09813407 -0.11470693 -0.3775974 -0.29167104 -0.42237535 -0.28760985
0.038330093 0.10715718 -0.19244821 0.09474171 -0.25552055 0.10662376 0.29357055 -0.17555287
0.18902208 0.02641696 -0.3329379 -0.12454152 -0.2853247 0.08241021 0.16665164 -0.23108894
-0.06076066 -0.30304405 -0.044054005 -0.3857536 -0.19200939 -0.19006364 0.035880513 -0.2701689
-0.14913191 -0.118360735 -0.063267715 -0.047689267 -0.031859767 0.029345868 -0.29113954 0.09565304
-0.19825247 -0.26267317 -0.08623433 -0.064855546 -0.0017614104 -0.17457774 -0.320749 -0.34106424
-0.16562362 -0.195691 0.09401729 0.20791323 -0.30207327 -0.07833332 0.0667978 0.051558536
-0.015171638 -0.10827317 -0.05710182 -0.12223291 0.08519435 -0.0911454 0.042811226 0.0014338036
-0.33930588 -0.15850827 0.017816968 -0.07128324 -0.10441969 -0.08007204 -0.13968948 -0.033991568
-0.25390315 -0.078362234 0.083265826 -0.14307633 -0.16665716 -0.038181044 0.010573905 -0.24071637
-0.034114324 -0.23222582 -0.04300611 -0.2448302 -0.076560706 0.22883354 -0.45663652 -0.0932329

fc2.weight f4 [128, 256]
00000000: a6c5 cabc d664 efbc 8ed6 233d 12c4 af3c
00000010: 915e 6a3d ce6b d4bc 5e98 793c c6ff 133d
00000020: 9426 233c 8da8 a73d 760b 2abe 1937 c2bc
00000030: 3265 0bbe 1b07 4cbd ac19 00be 92ba 2d3d
00000040: 8e8d 82bd f372 6fbd 9529 94bd a73c 09be
00000050: f6a7 a6bd e3ba b23d e755 b73d 8ec5 a3bc
00000060: 6fe7 1f3c 7acc 0dbd 6400 27bd f79c b8bd
00000070: 9e89 83bd 8aa1 b5bd 217c 083e 18d9 b3bd
00000080: 1b6e 893b f797 7bbb 758f 3f3d 1fd5 4d3d
00000090: ef90 7d3d caa9 28bd edbb 8e3c 482f 573d
000000a0: 131e a7ba 7078 e2bc eb6f 63bd 8e54 5fbd
000000b0: 013e 043d a527 cc3d 6921 823d ef7f ffbd
000000c0: f45c 393b 2168 cd3c 4435 10bd 99c1 28be
000000d0: 9065 90bc 0205 6dbd e5be 95bc 7259 1fbc
000000e0: 051b 403d bea2 61bd 8fc7 05be 5678 9cbd
000000f0: 7f33 2ebd 3c5d 19bd 7855 9abd 6916 ebbc
00000100: 4c07 e7bd ffa0 8bbd 6015 893c bdb4 a6bc
00000110: 7fe1 f3bd c446 3cbd ea6a 13bd 7f8c 1cbd
00000120: a58d 40be 1b1b ee3b 6c15 1bbe c774 91bd
00000130: bd6c a1bd 83c7 3ebe 6be8 bf3c aab1 2bbd
00000140: e97a 10be 8d25 02be aee5 e2bd 5d64 b7ba
00000150: 8e98 b73d 0cae 05be ca8c 0dbe c309 033c
00000160: f2c4 bcbc 7fe5 79bc 825a 6a3b 91b2 16be
00000170: c6f0 66bd 3556 e9bc 412f 7abd 78ab 07bc
00000180: 1e70 223c 9ff2 98bd 5f43 4b3d c396 18be
00000190: ce1d dabd 7eac 8ebc 10cb 903d b4fa dd3d
000001a0: b4dd a83d d0b5 8cbd 1030 1ebe 322f 7b3d
000001b0: b5d9 40bd 9582 723d 00ab 50bd 18c0 abba
000001c0: e830 8dbd 6b67 bc3a 2289 adbb a4ab a03c
000001d0: 9ec8 2c3d aad8 7f3d a345 72bd 07b5 22bc
000001e0: a9b7 133d eaad e9bd 55b5 a9bd 757d 1e3d
000001f0: a452 4abc f0a5 c23d cb57 0a3d 1891 a1bd
00000200: dfdd 1fbd 95a7 bb3d d120 0dbc 7195 ad3d
00000210: 67f8 2abc d1fd ce3d 3b2a a23d e9c7 d4bd
00000220: ed62 22bd 92e1 293d a6c4 9cbd cfd3 47bd
00000230: 7200 05bc 8912 1d3c 1832 053e a90a 23bd
00000240: e44b 9dbd 016d b43d adba 29bd 5154 2abd
00000250: 0f39 3cbd b6f0 4a3d f054 793d ced4 30bd
00000260: 0c3b 0abe 459f dabc aca8 dfbc bb02 733c
00000270: a68b ce3c 7689 213d 4e91 a7bc ac0a a43d
00000280: a788 4c3d 3ca1 f1bc 5592 633d fb9f edbc
00000290: 04ec a13d 0d45 57bd 5f20 b4bd 85c7 523b
000002a0: 42ea b23b 9bdc 67bc b976 a8bd 91df f8bc
000002b0: ecee b0bd 23dd 43bd 73d9 063c 0854 edbd
000002c0: 5bdb 6ebd 46f0 a43b 2956 b43c ba49 263d
000002d0: 2e44 273d 0de7 b8bc b651 853d 5463 083b
000002e0: 6f2a 28bd 86ca fbbd 0603 5d3d 459f 3ebd
000002f0: 71c5 223d 3d4f 93bd df9d d4bd ee89 babd
00000300: 4184 83bd 9aa9 33bd 4956 6dbd b1a2 723d
00000310: 94de d9bd 4ecb c1bc f1c4 62bc f182 a1bc
00000320: 2744 0f3d 900e 16bd 3e01 11bc e932 e5bc
00000330: 30fa 1f3d e313 783d d750 63bd e2c9 2b3d
00000340: 55a8 ee3c 08e1 513d 87a6 a73b 31c3 fcbd
00000350: 4553 4e3c 4a57 843d afe0 c33d d430 55bc
00000360: 2e59 b33c 1f15 4c3d bf2f eebd b5da 61bd
00000370: e5a1 71bd 91ae 5d3d 09f9 d139 1e98 2c3c
00000380: dae6 36bd dab5 35be f95c 97bd 3d84 833d
00000390: 4ccb c4bd bc27 c8bd af53 5b3d d0c4 71bd
000003a0: 78ff e4bc af82 0dbc b690 32be 9768 ac3c
000003b0: 8365 983c 1df8 37bc 7d7d 293d 1e42 82bd
000003c0: cf22 abbd 1ed4 8fbd 626d b93d 6920 edbd
000003d0: b3b0 a13b 5854 373d d89d 6abd 430f 27be
000003e0: b01b 87bc b4c1 e8bd ba25 d4bd 4db2 23be
000003f0: 8bad 0abd c5d6 7ebd 8724 c23c 00a6 d5bd
-0.02475245 -0.029222887 0.039999537 0.021455798 0.05721909 -0.025930312 0.015234081 0.036132596
0.009957928 0.081864454 -0.16605935 -0.023707913 -0.13612822 -0.049811464 -0.12509793 0.042414255
-0.06374656 -0.058459233 -0.07234494 -0.13402043 -0.08137505 0.08727052 0.089519314 -0.019991662
0.009759768 -0.034618832 -0.040771857 -0.09014314 -0.06422733 -0.08868702 0.13328601 -0.08781642
0.004194034 -0.0038390139 0.04676767 0.050252076 0.061905798 -0.04117755 0.017423594 0.052535325
-0.0012750052 -0.02764532 -0.055526655 -0.054523997 0.032285694 0.09968499 0.06354029 -0.12475573
0.0028284164 0.025074067 -0.035207048 -0.16480102 -0.017626554 -0.057866104 -0.018279502 -0.009725915
0.046900768 -0.055086844 -0.13064407 -0.0764014 -0.04252958 -0.03744243 -0.07535833 -0.02869721
-0.11280689 -0.06817817 0.016733825 -0.020349855 -0.11908244 -0.045965925 -0.035990633 -0.038219925
-0.18804033 0.007266415 -0.1514489 -0.07102352 -0.07882068 -0.18630795 0.023426255 -0.04191748
-0.14109387 -0.12709637 -0.11078964 -0.0013991703 0.08964644 -0.13054675 -0.13823238 0.007997933
-0.02304313 -0.01525247 0.0035759513 -0.14716555 -0.056381963 -0.02848349 -0.06108022 -0.008280627
0.009914426 -0.07468151 0.049624797 -0.14901261 -0.10650216 -0.017416235 0.07069981 0.108388335
0.082454115 -0.068706155 -0.15448022 0.061324306 -0.04708262 0.059206564 -0.05094433 -0.0013103513
-0.06894094 0.0014374083 -0.0052958885 0.019613095 0.04218351 0.062462486 -0.059148442 -0.009930856
0.036063824 -0.114101246 -0.082865395 0.038693864 -0.012348805 0.09504306 0.033775132 -0.078890026
-0.039029952 0.09162823 -0.008613781 0.08475769 -0.0104352 0.101070054 0.07918211 -0.10389692
-0.039645124 0.041474886 -0.07654695 -0.04878598 -0.008117782 0.009586939 0.1300739 -0.03980509
-0.076804906 0.08809853 -0.041437794 -0.041584317 -0.045952853 0.049545966 0.06087202 -0.043171696
-0.13499087 -0.026687274 -0.027302109 0.014832194 0.025213074 0.039437734 -0.020455029 0.08009848
0.04993501 -0.029495828 0.055559475 -0.029006949 0.079063445 -0.052556086 -0.08795237 0.003216238
0.0054600546 -0.014151718 -0.082257695 -0.030380042 -0.08639321 -0.047818314 0.008230555 -0.11588293
-0.058314662 0.0050335256 0.02201374 0.040597655 0.040836506 -0.022571111 0.06509726 0.0020811157
-0.041056093 -0.12294488 0.05395796 -0.04653861 0.039739076 -0.07192848 -0.10381674 -0.09108339
-0.0642171 -0.043862917 -0.057943616 0.059237186 -0.106381565 -0.023656514 -0.0138409 -0.019715758
0.034977105 -0.03663498 -0.008850394 -0.027978377 0.039056957 0.06056584 -0.055497017 0.041940577
0.029133001 0.051239997 0.005116287 -0.12341917 0.012593095 0.064619616 0.09564339 -0.01301213
0.02189311 0.04982483 -0.116302006 -0.055140216 -0.058992285 0.054121558 0.00040049132 0.010534314
-0.04465375 -0.17745152 -0.0739078 0.06421707 -0.09609088 -0.09773204 0.053546604 -0.059025586
-0.027953848 -0.008637114 -0.17438015 0.021045966 0.018603092 -0.011228588 0.04137944 -0.06360267
-0.083562486 -0.0702288 0.09054066 -0.11578447 0.0049343943 0.04475817 -0.057279438 -0.16314416
-0.016492695 -0.11365071 -0.10358758 -0.15985985 -0.03385691 -0.06221654 0.023699058 -0.104320526

fc2.bias f4 [128]
00000000: 7080 a5bd 4b0c afbd a766 a9bc c24a a5bd
00000010: 731a 1dbd 59d2 a9be ca8e 4a3d 7040 0dbe
00000020: d68a 4abd 45c7 20be 746f a0bd 78c7 3ebd
00000030: 5df1 0ebe 0e6b dcbd 8c03 46be 2d51 a5bd
00000040: ac8b 1fbe 7a1e 84bd 60cd 4bbe 29bf 9fbd
00000050: 5c74 c0be 561d 37be d1d2 d6bd 00ff e9bc
00000060: de28 953d 3d91 e5bd eb52 10be 297c e0bd
00000070: 4a97 93bd 5bfc a2be 462d 96bd 39d9 20be
00000080: c871 debd f94a 563c a383 06be 5c18 8cbd
00000090: 91b7 6ebe 4714 20be 0d41 07be 8b16 01be
000000a0: c0ec b43c 6850 ddbd 5105 9dbe 35f5 ccbd
000000b0: 2715 57bc 78a4 e7bc a4ab 0dbe 48fd 123c
000000c0: 72c4 80be 9787 083d f436 c2bd 8bbc dcbd
000000d0: 556e d2be e23e debd f5d8 2abd bda3 013c
000000e0: f06e 1fbe ecec e7bb 14a4 26be 1149 64bd
000000f0: 7207 17be ed78 68be f9cf bebe f1ac 2cbd
00000100: a5ad 2b3e 647a 34bc 3298 31be d055 9dbd
00000110: 1d35 09bd 2930 68bd c31a 28bd 9ca5 08be
00000120: 6b3d 57bd fb90 e3bd 669e c4bd 065f 87bd
00000130: 3586 96be e761 4a3b ffb7 3fbe 0097 6cbe
00000140: d6d9 9fbd 7937 67be 9f90 a3bd 2a92 51be
00000150: 0d1f f2bd b694 2ebe d9d6 54be 28e1 1bbe
00000160: ff6c 72bd efac 66be 75f7 acbd 46fa e5ba
00000170: a84f 5a3d 4f3a e3bd c403 7ebd 69db 8cbd
00000180: 175d b73d 50ea 92bd fb38 2bbd a804 c8bc
00000190: d305 813d b721 9f3c 1fdd 06be a853 1cbe
000001a0: eecf 26be 73ca 03be 117f 16be 8fc5 a3bd
000001b0: f6b3 b4bd d3ca 4dbe ddff a0bd e779 35be
000001c0: 1ad7 9fbe 9146 fd3d 393c 39bc 0109 6ebe
000001d0: 2823 33be 4136 acbd 8ea8 2cbd 413c e3be
000001e0: 1f7f 6cbe 66ba 393d 4929 c53d 8f24 12be
000001f0: 8cba 6fbe 042e 83be dd3d b6bc a2d0 123d
-0.08081138 -0.085472666 -0.020678831 -0.080708995 -0.038355302 -0.33168295 0.04945258 -0.13794112
-0.04944881 -0.15701015 -0.07833758 -0.046576947 -0.1395926 -0.107626066 -0.1933729 -0.08072124
-0.15580624 -0.064511254 -0.19902563 -0.07800133 -0.37588775 -0.17882285 -0.10489429 -0.028563976
0.072831854 -0.11209343 -0.1409413 -0.10961182 -0.072065905 -0.31833157 -0.07332854 -0.15707864
-0.10861546 0.013079398 -0.13136153 -0.06840584 -0.23312213 -0.15632735 -0.13208409 -0.12606256
0.022085547 -0.10806352 -0.3066812 -0.10007707 -0.013127602 -0.028276667 -0.13835007 0.00897152
-0.25149876 0.033332434 -0.09483138 -0.10778149 -0.41099802 -0.10851838 -0.041710813 0.007912573
-0.15569663 -0.007077804 -0.16273528 -0.055733744 -0.14748934 -0.2270238 -0.37268046 -0.042157117
0.16765459 -0.011015508 -0.17343214 -0.07682383 -0.03349792 -0.056686554 -0.041041147 -0.13344425
-0.052548807 -0.11111637 -0.096005246 -0.06609921 -0.29399267 0.0030881108 -0.18722533 -0.23104477
-0.07805221 -0.22579755 -0.07986569 -0.20465913 -0.11822329 -0.17048916 -0.20785083 -0.15222609
-0.059185978 -0.22526906 -0.08445636 -0.0017545901 0.053298622 -0.11095106 -0.06201531 -0.06877787
0.08953302 -0.07173598 -0.041802388 -0.024416283 0.06299939 0.019425256 -0.13170289 -0.15266287
-0.16290256 -0.12870197 -0.1469691 -0.07996666 -0.08823387 -0.20096903 -0.07861302 -0.17722283
-0.31218797 0.12366975 -0.011305862 -0.23245622 -0.1749388 -0.084087856 -0.042152934 -0.44381908
-0.23095368 0.04534378 0.09627015 -0.14271758 -0.23411006 -0.25621045 -0.022246296 0.0358435

output.weight f4 [2, 128]
00000000: 6418 093d 0c38 1bba 7af3 07be 7342 343d
00000010: 0c1c 87bb 26e8 a5be e132 2e3c 94b3 823b
00000020: d404 ebbb 450a 713d b939 9c3d 5dbe 423e
00000030: 230d 50bc a102 a5be da95 2b3c 427b 02bc
00000040: d18e 063c 8223 ce3c 5974 a93d 2988 c839
00000050: eff6 9bbe 127f cfbe 12b8 433d dc3a 173d
00000060: 1891 203c 00bc 9e3c e8ea 953c 3011 813c
00000070: 7951 ecbc 176b 3bbe 8b13 5fbc 2512 08bd
00000080: 4c0f a93e 668b 51bd f689 3e3c 2a5b b53b
00000090: aaba 16be aa7f 21bd f736 d6be 2ab4 b5bc
000000a0: 212c fbbd 3af6 b9be 5fbf 2fbe 3458 863d
000000b0: be89 aa3b eee8 8439 1eed 90bd d247 d23c
000000c0: cb05 a53d fe94 dfbc 02bb c4bb 2ed3 01be
000000d0: 7bc1 17bf 5640 a03d b581 85bd 7c27 afba
000000e0: 127b 5a3d 365d 6e3b a639 bc3c 3b31 8fbe
000000f0: 63d0 3cbd 50ad 2bbf 2a7e d7be 4ea2 52bc
00000100: bfad 883d 749a f33c cfc4 1fbc 3b8f ff3c
00000110: c7f7 8c3e 628a c1bd 6886 e9b8 5ed7 6f3b
00000120: ad26 163d e91a 57bc e2a4 293e 3173 0a38
00000130: 0187 6b3c 7c5b afbc 957f 06be b0c8 723c
00000140: 8e8f 88bb 0d86 5abd 6e21 7fbb 362f 11be
00000150: c440 88bb 6b20 873d cd4e dbbe 485b abbb
00000160: d0b6 973d 4526 6cbd 4d78 44bc 7abe 843c
00000170: 6a38 bf3b 8ae9 2e3e 3e1c 23bb 69d1 07b9
00000180: e815 b5bc 7c82 00bd e17e 163e f27f 15bb
00000190: d93c 3a3d 7b9c e93e 498a 00bf ae82 0d3d
000001a0: 356b abbc 6fe6 bb3c c429 a5bd 3e82 71be
000001b0: bf6f a23c 2610 dabe bf03 91bc 7d4b 93bc
000001c0: 6178 67bc 2b35 043e 8087 b03c 47c9 033e
000001d0: 00b0 5b3b dee2 c33a 4dd1 3a3e 4f3b cfbe
000001e0: 1bac a0bd 1b63 c4bc e8a1 b1bc 57cb 8bbd
000001f0: 7387 03bf 108c bbbe a368 20bd 53e7 4e3e
00000200: f55b 433c 378f dc3c b2b6 e33e fd1f 2ebc
00000210: de66 113c 89bb a73e 6d75 a1be 4fff 9bbc
00000220: ec78 913c 34a2 4bbe a97b 78be 172d 5fbe
00000230: b9a2 e9b9 8b51 f83e 0334 c33d 5e9e 75bd
00000240: bf2a d63e 3b86 c03c 29fa 4e3e fa58 f23a
00000250: f4f4 463f ecc2 b73e a29a bc3c 2814 12be
00000260: a7cf fcbe c6fb b83c e949 83bc 79a1 113d
00000270: 438b ce3a fe7c 01be 675b 0cbd e025 acbe
00000280: 9ee4 10bf c6e4 f2be 9966 df3c 9117 4cbe
00000290: 3334 2e3e 2ebf ed3e 06d6 16be 57da 463c
000002a0: cbae f03e 67cb 393d 452b ff3e d200 ae3d
000002b0: 15b2 c5bc 2fef c03e 006f 853e 1209 9cbd
000002c0: b805 c1be 319e e7bd 53ce 4d3c 270d 08be
000002d0: 95cf ab3c 97f3 28be 0cbe f13e d966 313c
000002e0: 528a 00be 6570 e13b 7d21 b23e d5e6 883e
000002f0: ed2f c13e 2a24 8c3d dafd b03c 0cb8 933c
00000300: f9ce 183f 289d 913c 42b7 22bd b3a9 ea3c
00000310: 07b5 693e 48a3 83bc 190a 1bbc 7ca6 88be
00000320: 2ee0 7dbd e806 953d eebc 27be 5c36 d23c
00000330: a92b 053f b962 a93b 60a5 d23d 3aba 11bd
00000340: fe16 27bc f814 473e 98b8 063c a97c eabd
00000350: bbe3 99bc 8c2f 113e f5b3 8abd c5e1 73be
00000360: cb1d ae3e 3958 7ebe fc08 353d 826b ac3c
00000370: 187e 69be 4013 053e 6c79 6b3c 368a 13bd
00000380: cba1 1e3f f720 dabe e45c 5cbe 12c6 33bc
00000390: ff33 88be cdb2 27bf 17ff d1bc 499b 833e
000003a0: bffb 393c dbd8 8abb 2d73 90be d108 703d
000003b0: 3785 943c 746b d2bb 919c 653c ebac ceba
000003c0: aaa3 4cbe 9cc9 e4be 39ba 9cbe d3ac 8abe
000003d0: 59f2 a43d 0882 8b3c 086f 4b3d 018a aebd
000003e0: 0fb7 22be 5347 fc3e c6f2 23bf 48d2 0bbe
000003f0: f9d1 8ebe caff d33d 25c7 873e 43e2 5b3e
0.033470526 -0.00059211324 -0.13276473 0.044008683 -0.0041232165 -0.32403678 0.010632248 0.0039886925
-0.0071722064 0.058847684 0.07628197 0.1901793 -0.012698445 -0.32228568 0.010472739 -0.007963957
0.008212761 0.025163416 0.08274145 0.0003824842 -0.30461833 -0.40526634 0.047782965 0.036921367
0.009800218 0.019376755 0.018300489 0.015755266 -0.028847443 -0.1830257 -0.013615499 -0.03322043
0.33019483 -0.05115833 0.011629572 0.0055345492 -0.14719644 -0.03942839 -0.4183881 -0.022180635
-0.12264276 -0.36320668 -0.17162846 0.06559792 0.0052044084 0.00025350548 -0.070764765 0.025669012
0.080577455 -0.027292725 -0.0060037384 -0.12678215 -0.592796 0.07824771 -0.0651888 -0.0013363208
0.053340025 0.0036371476 0.022976708 -0.27967247 -0.04609717 -0.6706133 -0.42088443 -0.012856079
0.066737644 0.029736735 -0.009751513 0.031196227 0.2753279 -0.094502226 -0.00011135341 0.0036596875
0.036657978 -0.0131289745 0.16566804 3.3009044e-05 0.014375449 -0.021405928 -0.13134606 0.014818355
-0.0041675037 -0.053350497 -0.0038929838 -0.14178166 -0.0041581113 0.0659798 -0.42833558 -0.0052293874
0.074079156 -0.057653684 -0.011991573 0.016204108 0.0058355825 0.17081276 -0.002488866 -0.00012952615
-0.022105172 -0.03137444 0.14696838 -0.0022811857 0.045468185 0.45627198 -0.50211006 0.034548454
-0.020925144 0.022937028 -0.08064607 -0.2358484 0.019828675 -0.42590445 -0.017701982 -0.017980332
-0.014127822 0.12910907 0.021548986 0.1286975 0.0033521652 0.0014944931 0.18243904 -0.40474936
-0.078453265 -0.023973038 -0.021683648 -0.06825893 -0.51378554 -0.36630297 -0.03916229 0.2020543
0.01192378 0.026923759 0.44475323 -0.010627744 0.008874623 0.32760265 -0.315349 -0.019042639
0.017757855 -0.19886094 -0.24265923 -0.21794544 -0.0004456246 0.48499712 0.09531405 -0.059965484
0.41829488 0.023501506 0.20212616 0.0018489652 0.7771752 0.358909 0.023022953 -0.14265501
-0.49377176 0.022580992 -0.016026454 0.035554383 0.0015758056 -0.12645337 -0.034266856 -0.33622646
-0.5659884 -0.47440165 0.027270602 -0.19930865 0.170121 0.4643492 -0.14730081 0.012137017
0.47008356 0.045359995 0.498377 0.0849625 -0.024132768 0.37682483 0.2606125 -0.076189175
-0.37699676 -0.113094695 0.012561399 -0.13286267 0.020973006 -0.16499172 0.47215307 0.010827743
-0.12552765 0.0068798536 0.34791175 0.2673861 0.37731877 0.06842835 0.02160542 0.018032096
0.59690815 0.017775133 -0.03972555 0.028645372 0.22822963 -0.01606907 -0.009462857 -0.26689517
-0.061981373 0.07276708 -0.16380665 0.025660686 0.52019745 0.0051692394 0.10285449 -0.03557799
-0.010198353 0.19441593 0.0082227215 -0.11449558 -0.018785348 0.14178294 -0.06772605 -0.23816593
0.34007105 -0.24838342 0.04419802 0.021047357 -0.22802007 0.12995625 0.014372211 -0.03602048
0.61965626 -0.42603275 -0.2151981 -0.010972517 -0.2660217 -0.65507203 -0.025634332 0.2570441
0.011351525 -0.004237277 -0.28212872 0.058602158 0.018129928 -0.006421501 0.014014379 -0.0015768086
-0.19984308 -0.44685066 -0.30610827 -0.2708498 0.08054037 0.017029777 0.049666435 -0.08522416
-0.15890144 0.49273166 -0.6404232 -0.13654435 -0.2789457 0.10351522 0.26519123 0.21473031

output.bias f4 [2]
00000000: e841 2bbe 9768 62be
-0.1672436 -0.2211021
